{"format": "graph-model", "generatedBy": "2.18.0", "convertedBy": "TensorFlow.js Converter v4.22.0", "signature": {"outputs": {"Identity:0": {"name": "Identity:0"}}}, "modelTopology": {"node": [{"name": "ConstantFolding/model_13/tf.math.divide/truediv_recip", "op": "Const", "attr": {"dtype": {"type": "DT_FLOAT"}, "value": {"tensor": {"dtype": "DT_FLOAT", "tensorShape": {"dim": [{"size": "1"}, {"size": "1"}, {"size": "1"}]}}}}}, {"name": "model_13/38715", "op": "Const", "attr": {"dtype": {"type": "DT_FLOAT"}, "value": {"tensor": {"dtype": "DT_FLOAT", "tensorShape": {"dim": [{"size": "1"}, {"size": "2"}, {"size": "8400"}]}}}}}, {"name": "model_13/tf.strided_slice_19/ones_like/tensor", "op": "Const", "attr": {"dtype": {"type": "DT_INT64"}, "value": {"tensor": {"dtype": "DT_INT64", "tensorShape": {"dim": [{"size": "3"}]}}}}}, {"name": "model_13/tf.strided_slice_19/StridedSlice/end", "op": "Const", "attr": {"dtype": {"type": "DT_INT64"}, "value": {"tensor": {"dtype": "DT_INT64", "tensorShape": {"dim": [{"size": "3"}]}}}}}, {"name": "model_13/tf.strided_slice_19/ones_like", "op": "Const", "attr": {"dtype": {"type": "DT_INT64"}, "value": {"tensor": {"dtype": "DT_INT64", "tensorShape": {"dim": [{"size": "3"}]}}}}}, {"name": "model_13/38718", "op": "Const", "attr": {"dtype": {"type": "DT_FLOAT"}, "value": {"tensor": {"dtype": "DT_FLOAT", "tensorShape": {"dim": [{"size": "1"}, {"size": "2"}, {"size": "8400"}]}}}}}, {"name": "model_13/tf.strided_slice_16/StridedSlice/begin", "op": "Const", "attr": {"value": {"tensor": {"dtype": "DT_INT64", "tensorShape": {"dim": [{"size": "3"}]}}}, "dtype": {"type": "DT_INT64"}}}, {"name": "model_13/tf.strided_slice_16/StridedSlice/end", "op": "Const", "attr": {"value": {"tensor": {"dtype": "DT_INT64", "tensorShape": {"dim": [{"size": "3"}]}}}, "dtype": {"type": "DT_INT64"}}}, {"name": "model_13/tf.strided_slice_16/StridedSlice/strides", "op": "Const", "attr": {"dtype": {"type": "DT_INT64"}, "value": {"tensor": {"dtype": "DT_INT64", "tensorShape": {"dim": [{"size": "3"}]}}}}}, {"name": "model_13/tf.reshape_11/Reshape/shape", "op": "Const", "attr": {"dtype": {"type": "DT_INT32"}, "value": {"tensor": {"dtype": "DT_INT32", "tensorShape": {"dim": [{"size": "4"}]}}}}}, {"name": "model_13/tf.compat.v1.transpose_19/transpose/perm", "op": "Const", "attr": {"value": {"tensor": {"dtype": "DT_INT32", "tensorShape": {"dim": [{"size": "4"}]}}}, "dtype": {"type": "DT_INT32"}}}, {"name": "model_13/tf.compat.v1.transpose_20/transpose/perm", "op": "Const", "attr": {"value": {"tensor": {"dtype": "DT_INT32", "tensorShape": {"dim": [{"size": "4"}]}}}, "dtype": {"type": "DT_INT32"}}}, {"name": "model_13/tf.nn.convolution_63/convolution/filter", "op": "Const", "attr": {"value": {"tensor": {"dtype": "DT_FLOAT", "tensorShape": {"dim": [{"size": "1"}, {"size": "1"}, {"size": "16"}, {"size": "1"}]}}}, "dtype": {"type": "DT_FLOAT"}}}, {"name": "model_13/tf.compat.v1.transpose_25/transpose/perm", "op": "Const", "attr": {"value": {"tensor": {"dtype": "DT_INT32", "tensorShape": {"dim": [{"size": "4"}]}}}, "dtype": {"type": "DT_INT32"}}}, {"name": "model_13/tf.reshape_14/Reshape/shape", "op": "Const", "attr": {"dtype": {"type": "DT_INT32"}, "value": {"tensor": {"dtype": "DT_INT32", "tensorShape": {"dim": [{"size": "3"}]}}}}}, {"name": "model_13/tf.strided_slice_18/ones_like/tensor", "op": "Const", "attr": {"dtype": {"type": "DT_INT64"}, "value": {"tensor": {"dtype": "DT_INT64", "tensorShape": {"dim": [{"size": "3"}]}}}}}, {"name": "model_13/tf.strided_slice_18/StridedSlice/end", "op": "Const", "attr": {"value": {"tensor": {"dtype": "DT_INT64", "tensorShape": {"dim": [{"size": "3"}]}}}, "dtype": {"type": "DT_INT64"}}}, {"name": "model_13/tf.strided_slice_18/ones_like", "op": "Const", "attr": {"value": {"tensor": {"dtype": "DT_INT64", "tensorShape": {"dim": [{"size": "3"}]}}}, "dtype": {"type": "DT_INT64"}}}, {"name": "model_13/tf.concat_20/concat/axis", "op": "Const", "attr": {"value": {"tensor": {"dtype": "DT_INT32", "tensorShape": {}}}, "dtype": {"type": "DT_INT32"}}}, {"name": "model_13/tf.math.multiply_252/Mul/y", "op": "Const", "attr": {"dtype": {"type": "DT_FLOAT"}, "value": {"tensor": {"dtype": "DT_FLOAT", "tensorShape": {"dim": [{"size": "1"}, {"size": "1"}, {"size": "8400"}]}}}}}, {"name": "model_13/tf.nn.convolution_36/convolution/filter", "op": "Const", "attr": {"value": {"tensor": {"dtype": "DT_FLOAT", "tensorShape": {"dim": [{"size": "3"}, {"size": "3"}, {"size": "64"}, {"size": "64"}]}}}, "dtype": {"type": "DT_FLOAT"}}}, {"name": "model_13/tf.math.add_48/Add/y", "op": "Const", "attr": {"dtype": {"type": "DT_FLOAT"}, "value": {"tensor": {"dtype": "DT_FLOAT", "tensorShape": {"dim": [{"size": "64"}]}}}}}, {"name": "model_13/tf.nn.convolution_38/convolution/filter", "op": "Const", "attr": {"value": {"tensor": {"dtype": "DT_FLOAT", "tensorShape": {"dim": [{"size": "3"}, {"size": "3"}, {"size": "64"}, {"size": "64"}]}}}, "dtype": {"type": "DT_FLOAT"}}}, {"name": "model_13/tf.math.add_50/Add/y", "op": "Const", "attr": {"dtype": {"type": "DT_FLOAT"}, "value": {"tensor": {"dtype": "DT_FLOAT", "tensorShape": {"dim": [{"size": "64"}]}}}}}, {"name": "model_13/tf.nn.convolution_41/convolution/filter", "op": "Const", "attr": {"value": {"tensor": {"dtype": "DT_FLOAT", "tensorShape": {"dim": [{"size": "1"}, {"size": "1"}, {"size": "64"}, {"size": "64"}]}}}, "dtype": {"type": "DT_FLOAT"}}}, {"name": "model_13/tf.math.add_53/Add/y", "op": "Const", "attr": {"dtype": {"type": "DT_FLOAT"}, "value": {"tensor": {"dtype": "DT_FLOAT", "tensorShape": {"dim": [{"size": "64"}]}}}}}, {"name": "model_13/tf.nn.convolution_37/convolution/filter", "op": "Const", "attr": {"value": {"tensor": {"dtype": "DT_FLOAT", "tensorShape": {"dim": [{"size": "3"}, {"size": "3"}, {"size": "64"}, {"size": "64"}]}}}, "dtype": {"type": "DT_FLOAT"}}}, {"name": "model_13/tf.math.add_49/Add/y", "op": "Const", "attr": {"value": {"tensor": {"dtype": "DT_FLOAT", "tensorShape": {"dim": [{"size": "64"}]}}}, "dtype": {"type": "DT_FLOAT"}}}, {"name": "model_13/tf.nn.convolution_39/convolution/filter", "op": "Const", "attr": {"value": {"tensor": {"dtype": "DT_FLOAT", "tensorShape": {"dim": [{"size": "3"}, {"size": "3"}, {"size": "64"}, {"size": "64"}]}}}, "dtype": {"type": "DT_FLOAT"}}}, {"name": "model_13/tf.math.add_51/Add/y", "op": "Const", "attr": {"value": {"tensor": {"dtype": "DT_FLOAT", "tensorShape": {"dim": [{"size": "64"}]}}}, "dtype": {"type": "DT_FLOAT"}}}, {"name": "model_13/tf.nn.convolution_42/convolution/filter", "op": "Const", "attr": {"dtype": {"type": "DT_FLOAT"}, "value": {"tensor": {"dtype": "DT_FLOAT", "tensorShape": {"dim": [{"size": "1"}, {"size": "1"}, {"size": "64"}, {"size": "2"}]}}}}}, {"name": "model_13/tf.math.add_54/Add/y", "op": "Const", "attr": {"value": {"tensor": {"dtype": "DT_FLOAT", "tensorShape": {"dim": [{"size": "2"}]}}}, "dtype": {"type": "DT_FLOAT"}}}, {"name": "model_13/tf.concat_10/concat/axis", "op": "Const", "attr": {"value": {"tensor": {"dtype": "DT_INT32", "tensorShape": {}}}, "dtype": {"type": "DT_INT32"}}}, {"name": "model_13/tf.compat.v1.transpose_2/transpose/perm", "op": "Const", "attr": {"dtype": {"type": "DT_INT32"}, "value": {"tensor": {"dtype": "DT_INT32", "tensorShape": {"dim": [{"size": "4"}]}}}}}, {"name": "model_13/tf.reshape_2/Reshape/shape", "op": "Const", "attr": {"dtype": {"type": "DT_INT32"}, "value": {"tensor": {"dtype": "DT_INT32", "tensorShape": {"dim": [{"size": "3"}]}}}}}, {"name": "model_13/tf.nn.convolution_47/convolution/filter", "op": "Const", "attr": {"dtype": {"type": "DT_FLOAT"}, "value": {"tensor": {"dtype": "DT_FLOAT", "tensorShape": {"dim": [{"size": "3"}, {"size": "3"}, {"size": "128"}, {"size": "64"}]}}}}}, {"name": "model_13/tf.math.add_59/Add/y", "op": "Const", "attr": {"value": {"tensor": {"dtype": "DT_FLOAT", "tensorShape": {"dim": [{"size": "64"}]}}}, "dtype": {"type": "DT_FLOAT"}}}, {"name": "model_13/tf.nn.convolution_49/convolution/filter", "op": "Const", "attr": {"value": {"tensor": {"dtype": "DT_FLOAT", "tensorShape": {"dim": [{"size": "3"}, {"size": "3"}, {"size": "64"}, {"size": "64"}]}}}, "dtype": {"type": "DT_FLOAT"}}}, {"name": "model_13/tf.math.add_61/Add/y", "op": "Const", "attr": {"value": {"tensor": {"dtype": "DT_FLOAT", "tensorShape": {"dim": [{"size": "64"}]}}}, "dtype": {"type": "DT_FLOAT"}}}, {"name": "model_13/tf.nn.convolution_52/convolution/filter", "op": "Const", "attr": {"value": {"tensor": {"dtype": "DT_FLOAT", "tensorShape": {"dim": [{"size": "1"}, {"size": "1"}, {"size": "64"}, {"size": "64"}]}}}, "dtype": {"type": "DT_FLOAT"}}}, {"name": "model_13/tf.math.add_64/Add/y", "op": "Const", "attr": {"dtype": {"type": "DT_FLOAT"}, "value": {"tensor": {"dtype": "DT_FLOAT", "tensorShape": {"dim": [{"size": "64"}]}}}}}, {"name": "model_13/tf.nn.convolution_48/convolution/filter", "op": "Const", "attr": {"dtype": {"type": "DT_FLOAT"}, "value": {"tensor": {"dtype": "DT_FLOAT", "tensorShape": {"dim": [{"size": "3"}, {"size": "3"}, {"size": "128"}, {"size": "64"}]}}}}}, {"name": "model_13/tf.math.add_60/Add/y", "op": "Const", "attr": {"value": {"tensor": {"dtype": "DT_FLOAT", "tensorShape": {"dim": [{"size": "64"}]}}}, "dtype": {"type": "DT_FLOAT"}}}, {"name": "model_13/tf.nn.convolution_50/convolution/filter", "op": "Const", "attr": {"dtype": {"type": "DT_FLOAT"}, "value": {"tensor": {"dtype": "DT_FLOAT", "tensorShape": {"dim": [{"size": "3"}, {"size": "3"}, {"size": "64"}, {"size": "64"}]}}}}}, {"name": "model_13/tf.math.add_62/Add/y", "op": "Const", "attr": {"value": {"tensor": {"dtype": "DT_FLOAT", "tensorShape": {"dim": [{"size": "64"}]}}}, "dtype": {"type": "DT_FLOAT"}}}, {"name": "model_13/tf.nn.convolution_53/convolution/filter", "op": "Const", "attr": {"dtype": {"type": "DT_FLOAT"}, "value": {"tensor": {"dtype": "DT_FLOAT", "tensorShape": {"dim": [{"size": "1"}, {"size": "1"}, {"size": "64"}, {"size": "2"}]}}}}}, {"name": "model_13/tf.math.add_65/Add/y", "op": "Const", "attr": {"value": {"tensor": {"dtype": "DT_FLOAT", "tensorShape": {"dim": [{"size": "2"}]}}}, "dtype": {"type": "DT_FLOAT"}}}, {"name": "model_13/tf.concat_13/concat/axis", "op": "Const", "attr": {"dtype": {"type": "DT_INT32"}, "value": {"tensor": {"dtype": "DT_INT32", "tensorShape": {}}}}}, {"name": "model_13/tf.compat.v1.transpose_7/transpose/perm", "op": "Const", "attr": {"dtype": {"type": "DT_INT32"}, "value": {"tensor": {"dtype": "DT_INT32", "tensorShape": {"dim": [{"size": "4"}]}}}}}, {"name": "model_13/tf.reshape_5/Reshape/shape", "op": "Const", "attr": {"value": {"tensor": {"dtype": "DT_INT32", "tensorShape": {"dim": [{"size": "3"}]}}}, "dtype": {"type": "DT_INT32"}}}, {"name": "model_13/tf.nn.convolution_57/convolution/filter", "op": "Const", "attr": {"value": {"tensor": {"dtype": "DT_FLOAT", "tensorShape": {"dim": [{"size": "3"}, {"size": "3"}, {"size": "256"}, {"size": "64"}]}}}, "dtype": {"type": "DT_FLOAT"}}}, {"name": "model_13/tf.math.add_69/Add/y", "op": "Const", "attr": {"value": {"tensor": {"dtype": "DT_FLOAT", "tensorShape": {"dim": [{"size": "64"}]}}}, "dtype": {"type": "DT_FLOAT"}}}, {"name": "model_13/tf.nn.convolution_59/convolution/filter", "op": "Const", "attr": {"dtype": {"type": "DT_FLOAT"}, "value": {"tensor": {"dtype": "DT_FLOAT", "tensorShape": {"dim": [{"size": "3"}, {"size": "3"}, {"size": "64"}, {"size": "64"}]}}}}}, {"name": "model_13/tf.math.add_71/Add/y", "op": "Const", "attr": {"value": {"tensor": {"dtype": "DT_FLOAT", "tensorShape": {"dim": [{"size": "64"}]}}}, "dtype": {"type": "DT_FLOAT"}}}, {"name": "model_13/tf.nn.convolution_61/convolution/filter", "op": "Const", "attr": {"value": {"tensor": {"dtype": "DT_FLOAT", "tensorShape": {"dim": [{"size": "1"}, {"size": "1"}, {"size": "64"}, {"size": "64"}]}}}, "dtype": {"type": "DT_FLOAT"}}}, {"name": "model_13/tf.math.add_73/Add/y", "op": "Const", "attr": {"value": {"tensor": {"dtype": "DT_FLOAT", "tensorShape": {"dim": [{"size": "64"}]}}}, "dtype": {"type": "DT_FLOAT"}}}, {"name": "model_13/tf.strided_slice_14/ones_like/tensor", "op": "Const", "attr": {"value": {"tensor": {"dtype": "DT_INT64", "tensorShape": {"dim": [{"size": "4"}]}}}, "dtype": {"type": "DT_INT64"}}}, {"name": "model_13/tf.strided_slice_14/StridedSlice/end", "op": "Const", "attr": {"dtype": {"type": "DT_INT64"}, "value": {"tensor": {"dtype": "DT_INT64", "tensorShape": {"dim": [{"size": "4"}]}}}}}, {"name": "model_13/tf.strided_slice_14/ones_like", "op": "Const", "attr": {"dtype": {"type": "DT_INT64"}, "value": {"tensor": {"dtype": "DT_INT64", "tensorShape": {"dim": [{"size": "4"}]}}}}}, {"name": "model_13/tf.strided_slice_12/ones_like/tensor", "op": "Const", "attr": {"value": {"tensor": {"dtype": "DT_INT64", "tensorShape": {"dim": [{"size": "4"}]}}}, "dtype": {"type": "DT_INT64"}}}, {"name": "model_13/tf.strided_slice_12/StridedSlice/end", "op": "Const", "attr": {"value": {"tensor": {"dtype": "DT_INT64", "tensorShape": {"dim": [{"size": "4"}]}}}, "dtype": {"type": "DT_INT64"}}}, {"name": "model_13/tf.strided_slice_12/ones_like", "op": "Const", "attr": {"value": {"tensor": {"dtype": "DT_INT64", "tensorShape": {"dim": [{"size": "4"}]}}}, "dtype": {"type": "DT_INT64"}}}, {"name": "model_13/tf.strided_slice_10/ones_like/tensor", "op": "Const", "attr": {"value": {"tensor": {"dtype": "DT_INT64", "tensorShape": {"dim": [{"size": "4"}]}}}, "dtype": {"type": "DT_INT64"}}}, {"name": "model_13/tf.strided_slice_10/StridedSlice/end", "op": "Const", "attr": {"value": {"tensor": {"dtype": "DT_INT64", "tensorShape": {"dim": [{"size": "4"}]}}}, "dtype": {"type": "DT_INT64"}}}, {"name": "model_13/tf.strided_slice_10/ones_like", "op": "Const", "attr": {"dtype": {"type": "DT_INT64"}, "value": {"tensor": {"dtype": "DT_INT64", "tensorShape": {"dim": [{"size": "4"}]}}}}}, {"name": "model_13/tf.image.resize_1/resize/size", "op": "Const", "attr": {"value": {"tensor": {"dtype": "DT_INT32", "tensorShape": {"dim": [{"size": "2"}]}}}, "dtype": {"type": "DT_INT32"}}}, {"name": "model_13/tf.concat_7/concat/axis", "op": "Const", "attr": {"dtype": {"type": "DT_INT32"}, "value": {"tensor": {"dtype": "DT_INT32", "tensorShape": {}}}}}, {"name": "model_13/tf.nn.convolution_31/convolution/filter", "op": "Const", "attr": {"value": {"tensor": {"dtype": "DT_FLOAT", "tensorShape": {"dim": [{"size": "1"}, {"size": "1"}, {"size": "192"}, {"size": "64"}]}}}, "dtype": {"type": "DT_FLOAT"}}}, {"name": "model_13/tf.math.add_43/Add/y", "op": "Const", "attr": {"value": {"tensor": {"dtype": "DT_FLOAT", "tensorShape": {"dim": [{"size": "64"}]}}}, "dtype": {"type": "DT_FLOAT"}}}, {"name": "model_13/tf.strided_slice_11/ones_like/tensor", "op": "Const", "attr": {"value": {"tensor": {"dtype": "DT_INT64", "tensorShape": {"dim": [{"size": "4"}]}}}, "dtype": {"type": "DT_INT64"}}}, {"name": "model_13/tf.strided_slice_11/StridedSlice/end", "op": "Const", "attr": {"dtype": {"type": "DT_INT64"}, "value": {"tensor": {"dtype": "DT_INT64", "tensorShape": {"dim": [{"size": "4"}]}}}}}, {"name": "model_13/tf.strided_slice_11/ones_like", "op": "Const", "attr": {"value": {"tensor": {"dtype": "DT_INT64", "tensorShape": {"dim": [{"size": "4"}]}}}, "dtype": {"type": "DT_INT64"}}}, {"name": "model_13/tf.nn.convolution_32/convolution/filter", "op": "Const", "attr": {"dtype": {"type": "DT_FLOAT"}, "value": {"tensor": {"dtype": "DT_FLOAT", "tensorShape": {"dim": [{"size": "3"}, {"size": "3"}, {"size": "32"}, {"size": "32"}]}}}}}, {"name": "model_13/tf.math.add_44/Add/y", "op": "Const", "attr": {"value": {"tensor": {"dtype": "DT_FLOAT", "tensorShape": {"dim": [{"size": "32"}]}}}, "dtype": {"type": "DT_FLOAT"}}}, {"name": "model_13/tf.nn.convolution_33/convolution/filter", "op": "Const", "attr": {"dtype": {"type": "DT_FLOAT"}, "value": {"tensor": {"dtype": "DT_FLOAT", "tensorShape": {"dim": [{"size": "3"}, {"size": "3"}, {"size": "32"}, {"size": "32"}]}}}}}, {"name": "model_13/tf.math.add_45/Add/y", "op": "Const", "attr": {"dtype": {"type": "DT_FLOAT"}, "value": {"tensor": {"dtype": "DT_FLOAT", "tensorShape": {"dim": [{"size": "32"}]}}}}}, {"name": "model_13/tf.concat_8/concat/axis", "op": "Const", "attr": {"dtype": {"type": "DT_INT32"}, "value": {"tensor": {"dtype": "DT_INT32", "tensorShape": {}}}}}, {"name": "model_13/tf.nn.convolution_34/convolution/filter", "op": "Const", "attr": {"value": {"tensor": {"dtype": "DT_FLOAT", "tensorShape": {"dim": [{"size": "1"}, {"size": "1"}, {"size": "96"}, {"size": "64"}]}}}, "dtype": {"type": "DT_FLOAT"}}}, {"name": "model_13/tf.math.add_46/Add/y", "op": "Const", "attr": {"dtype": {"type": "DT_FLOAT"}, "value": {"tensor": {"dtype": "DT_FLOAT", "tensorShape": {"dim": [{"size": "64"}]}}}}}, {"name": "model_13/tf.compat.v1.pad_5/Pad/paddings", "op": "Const", "attr": {"dtype": {"type": "DT_INT32"}, "value": {"tensor": {"dtype": "DT_INT32", "tensorShape": {"dim": [{"size": "4"}, {"size": "2"}]}}}}}, {"name": "model_13/tf.nn.convolution_35/convolution/filter", "op": "Const", "attr": {"value": {"tensor": {"dtype": "DT_FLOAT", "tensorShape": {"dim": [{"size": "3"}, {"size": "3"}, {"size": "64"}, {"size": "64"}]}}}, "dtype": {"type": "DT_FLOAT"}}}, {"name": "model_13/tf.math.add_47/Add/y", "op": "Const", "attr": {"value": {"tensor": {"dtype": "DT_FLOAT", "tensorShape": {"dim": [{"size": "64"}]}}}, "dtype": {"type": "DT_FLOAT"}}}, {"name": "model_13/tf.strided_slice_8/ones_like/tensor", "op": "Const", "attr": {"dtype": {"type": "DT_INT64"}, "value": {"tensor": {"dtype": "DT_INT64", "tensorShape": {"dim": [{"size": "4"}]}}}}}, {"name": "model_13/tf.strided_slice_8/StridedSlice/end", "op": "Const", "attr": {"dtype": {"type": "DT_INT64"}, "value": {"tensor": {"dtype": "DT_INT64", "tensorShape": {"dim": [{"size": "4"}]}}}}}, {"name": "model_13/tf.strided_slice_8/ones_like", "op": "Const", "attr": {"dtype": {"type": "DT_INT64"}, "value": {"tensor": {"dtype": "DT_INT64", "tensorShape": {"dim": [{"size": "4"}]}}}}}, {"name": "model_13/tf.image.resize/resize/size", "op": "Const", "attr": {"value": {"tensor": {"dtype": "DT_INT32", "tensorShape": {"dim": [{"size": "2"}]}}}, "dtype": {"type": "DT_INT32"}}}, {"name": "model_13/tf.concat_5/concat/axis", "op": "Const", "attr": {"dtype": {"type": "DT_INT32"}, "value": {"tensor": {"dtype": "DT_INT32", "tensorShape": {}}}}}, {"name": "model_13/tf.nn.convolution_27/convolution/filter", "op": "Const", "attr": {"dtype": {"type": "DT_FLOAT"}, "value": {"tensor": {"dtype": "DT_FLOAT", "tensorShape": {"dim": [{"size": "1"}, {"size": "1"}, {"size": "384"}, {"size": "128"}]}}}}}, {"name": "model_13/tf.math.add_39/Add/y", "op": "Const", "attr": {"value": {"tensor": {"dtype": "DT_FLOAT", "tensorShape": {"dim": [{"size": "128"}]}}}, "dtype": {"type": "DT_FLOAT"}}}, {"name": "model_13/tf.strided_slice_9/ones_like/tensor", "op": "Const", "attr": {"value": {"tensor": {"dtype": "DT_INT64", "tensorShape": {"dim": [{"size": "4"}]}}}, "dtype": {"type": "DT_INT64"}}}, {"name": "model_13/tf.strided_slice_9/StridedSlice/end", "op": "Const", "attr": {"dtype": {"type": "DT_INT64"}, "value": {"tensor": {"dtype": "DT_INT64", "tensorShape": {"dim": [{"size": "4"}]}}}}}, {"name": "model_13/tf.strided_slice_9/ones_like", "op": "Const", "attr": {"value": {"tensor": {"dtype": "DT_INT64", "tensorShape": {"dim": [{"size": "4"}]}}}, "dtype": {"type": "DT_INT64"}}}, {"name": "model_13/tf.nn.convolution_28/convolution/filter", "op": "Const", "attr": {"value": {"tensor": {"dtype": "DT_FLOAT", "tensorShape": {"dim": [{"size": "3"}, {"size": "3"}, {"size": "64"}, {"size": "64"}]}}}, "dtype": {"type": "DT_FLOAT"}}}, {"name": "model_13/tf.math.add_40/Add/y", "op": "Const", "attr": {"value": {"tensor": {"dtype": "DT_FLOAT", "tensorShape": {"dim": [{"size": "64"}]}}}, "dtype": {"type": "DT_FLOAT"}}}, {"name": "model_13/tf.nn.convolution_29/convolution/filter", "op": "Const", "attr": {"dtype": {"type": "DT_FLOAT"}, "value": {"tensor": {"dtype": "DT_FLOAT", "tensorShape": {"dim": [{"size": "3"}, {"size": "3"}, {"size": "64"}, {"size": "64"}]}}}}}, {"name": "model_13/tf.math.add_41/Add/y", "op": "Const", "attr": {"value": {"tensor": {"dtype": "DT_FLOAT", "tensorShape": {"dim": [{"size": "64"}]}}}, "dtype": {"type": "DT_FLOAT"}}}, {"name": "model_13/tf.concat_6/concat/axis", "op": "Const", "attr": {"dtype": {"type": "DT_INT32"}, "value": {"tensor": {"dtype": "DT_INT32", "tensorShape": {}}}}}, {"name": "model_13/tf.nn.convolution_30/convolution/filter", "op": "Const", "attr": {"dtype": {"type": "DT_FLOAT"}, "value": {"tensor": {"dtype": "DT_FLOAT", "tensorShape": {"dim": [{"size": "1"}, {"size": "1"}, {"size": "192"}, {"size": "128"}]}}}}}, {"name": "model_13/tf.math.add_42/Add/y", "op": "Const", "attr": {"value": {"tensor": {"dtype": "DT_FLOAT", "tensorShape": {"dim": [{"size": "128"}]}}}, "dtype": {"type": "DT_FLOAT"}}}, {"name": "model_13/tf.concat_9/concat/axis", "op": "Const", "attr": {"value": {"tensor": {"dtype": "DT_INT32", "tensorShape": {}}}, "dtype": {"type": "DT_INT32"}}}, {"name": "model_13/tf.nn.convolution_40/convolution/filter", "op": "Const", "attr": {"dtype": {"type": "DT_FLOAT"}, "value": {"tensor": {"dtype": "DT_FLOAT", "tensorShape": {"dim": [{"size": "1"}, {"size": "1"}, {"size": "192"}, {"size": "128"}]}}}}}, {"name": "model_13/tf.math.add_52/Add/y", "op": "Const", "attr": {"value": {"tensor": {"dtype": "DT_FLOAT", "tensorShape": {"dim": [{"size": "128"}]}}}, "dtype": {"type": "DT_FLOAT"}}}, {"name": "model_13/tf.strided_slice_13/ones_like/tensor", "op": "Const", "attr": {"value": {"tensor": {"dtype": "DT_INT64", "tensorShape": {"dim": [{"size": "4"}]}}}, "dtype": {"type": "DT_INT64"}}}, {"name": "model_13/tf.strided_slice_13/StridedSlice/end", "op": "Const", "attr": {"dtype": {"type": "DT_INT64"}, "value": {"tensor": {"dtype": "DT_INT64", "tensorShape": {"dim": [{"size": "4"}]}}}}}, {"name": "model_13/tf.strided_slice_13/ones_like", "op": "Const", "attr": {"dtype": {"type": "DT_INT64"}, "value": {"tensor": {"dtype": "DT_INT64", "tensorShape": {"dim": [{"size": "4"}]}}}}}, {"name": "model_13/tf.nn.convolution_43/convolution/filter", "op": "Const", "attr": {"value": {"tensor": {"dtype": "DT_FLOAT", "tensorShape": {"dim": [{"size": "3"}, {"size": "3"}, {"size": "64"}, {"size": "64"}]}}}, "dtype": {"type": "DT_FLOAT"}}}, {"name": "model_13/tf.math.add_55/Add/y", "op": "Const", "attr": {"dtype": {"type": "DT_FLOAT"}, "value": {"tensor": {"dtype": "DT_FLOAT", "tensorShape": {"dim": [{"size": "64"}]}}}}}, {"name": "model_13/tf.nn.convolution_44/convolution/filter", "op": "Const", "attr": {"value": {"tensor": {"dtype": "DT_FLOAT", "tensorShape": {"dim": [{"size": "3"}, {"size": "3"}, {"size": "64"}, {"size": "64"}]}}}, "dtype": {"type": "DT_FLOAT"}}}, {"name": "model_13/tf.math.add_56/Add/y", "op": "Const", "attr": {"value": {"tensor": {"dtype": "DT_FLOAT", "tensorShape": {"dim": [{"size": "64"}]}}}, "dtype": {"type": "DT_FLOAT"}}}, {"name": "model_13/tf.concat_11/concat/axis", "op": "Const", "attr": {"value": {"tensor": {"dtype": "DT_INT32", "tensorShape": {}}}, "dtype": {"type": "DT_INT32"}}}, {"name": "model_13/tf.nn.convolution_45/convolution/filter", "op": "Const", "attr": {"dtype": {"type": "DT_FLOAT"}, "value": {"tensor": {"dtype": "DT_FLOAT", "tensorShape": {"dim": [{"size": "1"}, {"size": "1"}, {"size": "192"}, {"size": "128"}]}}}}}, {"name": "model_13/tf.math.add_57/Add/y", "op": "Const", "attr": {"dtype": {"type": "DT_FLOAT"}, "value": {"tensor": {"dtype": "DT_FLOAT", "tensorShape": {"dim": [{"size": "128"}]}}}}}, {"name": "model_13/tf.compat.v1.pad_6/Pad/paddings", "op": "Const", "attr": {"value": {"tensor": {"dtype": "DT_INT32", "tensorShape": {"dim": [{"size": "4"}, {"size": "2"}]}}}, "dtype": {"type": "DT_INT32"}}}, {"name": "model_13/tf.nn.convolution_46/convolution/filter", "op": "Const", "attr": {"value": {"tensor": {"dtype": "DT_FLOAT", "tensorShape": {"dim": [{"size": "3"}, {"size": "3"}, {"size": "128"}, {"size": "128"}]}}}, "dtype": {"type": "DT_FLOAT"}}}, {"name": "model_13/tf.math.add_58/Add/y", "op": "Const", "attr": {"value": {"tensor": {"dtype": "DT_FLOAT", "tensorShape": {"dim": [{"size": "128"}]}}}, "dtype": {"type": "DT_FLOAT"}}}, {"name": "model_13/tf.strided_slice_6/ones_like/tensor", "op": "Const", "attr": {"dtype": {"type": "DT_INT64"}, "value": {"tensor": {"dtype": "DT_INT64", "tensorShape": {"dim": [{"size": "4"}]}}}}}, {"name": "model_13/tf.strided_slice_6/StridedSlice/end", "op": "Const", "attr": {"value": {"tensor": {"dtype": "DT_INT64", "tensorShape": {"dim": [{"size": "4"}]}}}, "dtype": {"type": "DT_INT64"}}}, {"name": "model_13/tf.strided_slice_6/ones_like", "op": "Const", "attr": {"dtype": {"type": "DT_INT64"}, "value": {"tensor": {"dtype": "DT_INT64", "tensorShape": {"dim": [{"size": "4"}]}}}}}, {"name": "model_13/tf.strided_slice_4/ones_like/tensor", "op": "Const", "attr": {"dtype": {"type": "DT_INT64"}, "value": {"tensor": {"dtype": "DT_INT64", "tensorShape": {"dim": [{"size": "4"}]}}}}}, {"name": "model_13/tf.strided_slice_4/StridedSlice/end", "op": "Const", "attr": {"value": {"tensor": {"dtype": "DT_INT64", "tensorShape": {"dim": [{"size": "4"}]}}}, "dtype": {"type": "DT_INT64"}}}, {"name": "model_13/tf.strided_slice_4/ones_like", "op": "Const", "attr": {"value": {"tensor": {"dtype": "DT_INT64", "tensorShape": {"dim": [{"size": "4"}]}}}, "dtype": {"type": "DT_INT64"}}}, {"name": "model_13/tf.strided_slice_2/ones_like/tensor", "op": "Const", "attr": {"value": {"tensor": {"dtype": "DT_INT64", "tensorShape": {"dim": [{"size": "4"}]}}}, "dtype": {"type": "DT_INT64"}}}, {"name": "model_13/tf.strided_slice_2/StridedSlice/end", "op": "Const", "attr": {"value": {"tensor": {"dtype": "DT_INT64", "tensorShape": {"dim": [{"size": "4"}]}}}, "dtype": {"type": "DT_INT64"}}}, {"name": "model_13/tf.strided_slice_2/ones_like", "op": "Const", "attr": {"dtype": {"type": "DT_INT64"}, "value": {"tensor": {"dtype": "DT_INT64", "tensorShape": {"dim": [{"size": "4"}]}}}}}, {"name": "model_13/tf.strided_slice/ones_like/tensor", "op": "Const", "attr": {"value": {"tensor": {"dtype": "DT_INT64", "tensorShape": {"dim": [{"size": "4"}]}}}, "dtype": {"type": "DT_INT64"}}}, {"name": "model_13/tf.strided_slice/StridedSlice/end", "op": "Const", "attr": {"dtype": {"type": "DT_INT64"}, "value": {"tensor": {"dtype": "DT_INT64", "tensorShape": {"dim": [{"size": "4"}]}}}}}, {"name": "model_13/tf.strided_slice/ones_like", "op": "Const", "attr": {"value": {"tensor": {"dtype": "DT_INT64", "tensorShape": {"dim": [{"size": "4"}]}}}, "dtype": {"type": "DT_INT64"}}}, {"name": "model_13/tf.compat.v1.pad/Pad/paddings", "op": "Const", "attr": {"dtype": {"type": "DT_INT32"}, "value": {"tensor": {"dtype": "DT_INT32", "tensorShape": {"dim": [{"size": "4"}, {"size": "2"}]}}}}}, {"name": "model_13/tf.nn.convolution/convolution/filter", "op": "Const", "attr": {"value": {"tensor": {"dtype": "DT_FLOAT", "tensorShape": {"dim": [{"size": "3"}, {"size": "3"}, {"size": "3"}, {"size": "16"}]}}}, "dtype": {"type": "DT_FLOAT"}}}, {"name": "model_13/tf.math.add/Add/y", "op": "Const", "attr": {"dtype": {"type": "DT_FLOAT"}, "value": {"tensor": {"dtype": "DT_FLOAT", "tensorShape": {"dim": [{"size": "16"}]}}}}}, {"name": "model_13/tf.compat.v1.pad_1/Pad/paddings", "op": "Const", "attr": {"value": {"tensor": {"dtype": "DT_INT32", "tensorShape": {"dim": [{"size": "4"}, {"size": "2"}]}}}, "dtype": {"type": "DT_INT32"}}}, {"name": "model_13/tf.nn.convolution_1/convolution/filter", "op": "Const", "attr": {"value": {"tensor": {"dtype": "DT_FLOAT", "tensorShape": {"dim": [{"size": "3"}, {"size": "3"}, {"size": "16"}, {"size": "32"}]}}}, "dtype": {"type": "DT_FLOAT"}}}, {"name": "model_13/tf.math.add_1/Add/y", "op": "Const", "attr": {"value": {"tensor": {"dtype": "DT_FLOAT", "tensorShape": {"dim": [{"size": "32"}]}}}, "dtype": {"type": "DT_FLOAT"}}}, {"name": "model_13/tf.nn.convolution_2/convolution/filter", "op": "Const", "attr": {"value": {"tensor": {"dtype": "DT_FLOAT", "tensorShape": {"dim": [{"size": "1"}, {"size": "1"}, {"size": "32"}, {"size": "32"}]}}}, "dtype": {"type": "DT_FLOAT"}}}, {"name": "model_13/tf.math.add_2/Add/y", "op": "Const", "attr": {"value": {"tensor": {"dtype": "DT_FLOAT", "tensorShape": {"dim": [{"size": "32"}]}}}, "dtype": {"type": "DT_FLOAT"}}}, {"name": "model_13/tf.strided_slice_1/ones_like/tensor", "op": "Const", "attr": {"value": {"tensor": {"dtype": "DT_INT64", "tensorShape": {"dim": [{"size": "4"}]}}}, "dtype": {"type": "DT_INT64"}}}, {"name": "model_13/tf.strided_slice_1/StridedSlice/end", "op": "Const", "attr": {"dtype": {"type": "DT_INT64"}, "value": {"tensor": {"dtype": "DT_INT64", "tensorShape": {"dim": [{"size": "4"}]}}}}}, {"name": "model_13/tf.strided_slice_1/ones_like", "op": "Const", "attr": {"value": {"tensor": {"dtype": "DT_INT64", "tensorShape": {"dim": [{"size": "4"}]}}}, "dtype": {"type": "DT_INT64"}}}, {"name": "model_13/tf.nn.convolution_3/convolution/filter", "op": "Const", "attr": {"value": {"tensor": {"dtype": "DT_FLOAT", "tensorShape": {"dim": [{"size": "3"}, {"size": "3"}, {"size": "16"}, {"size": "16"}]}}}, "dtype": {"type": "DT_FLOAT"}}}, {"name": "model_13/tf.math.add_3/Add/y", "op": "Const", "attr": {"value": {"tensor": {"dtype": "DT_FLOAT", "tensorShape": {"dim": [{"size": "16"}]}}}, "dtype": {"type": "DT_FLOAT"}}}, {"name": "model_13/tf.nn.convolution_4/convolution/filter", "op": "Const", "attr": {"dtype": {"type": "DT_FLOAT"}, "value": {"tensor": {"dtype": "DT_FLOAT", "tensorShape": {"dim": [{"size": "3"}, {"size": "3"}, {"size": "16"}, {"size": "16"}]}}}}}, {"name": "model_13/tf.math.add_4/Add/y", "op": "Const", "attr": {"dtype": {"type": "DT_FLOAT"}, "value": {"tensor": {"dtype": "DT_FLOAT", "tensorShape": {"dim": [{"size": "16"}]}}}}}, {"name": "model_13/tf.concat/concat/axis", "op": "Const", "attr": {"dtype": {"type": "DT_INT32"}, "value": {"tensor": {"dtype": "DT_INT32", "tensorShape": {}}}}}, {"name": "model_13/tf.nn.convolution_5/convolution/filter", "op": "Const", "attr": {"dtype": {"type": "DT_FLOAT"}, "value": {"tensor": {"dtype": "DT_FLOAT", "tensorShape": {"dim": [{"size": "1"}, {"size": "1"}, {"size": "48"}, {"size": "32"}]}}}}}, {"name": "model_13/tf.math.add_7/Add/y", "op": "Const", "attr": {"value": {"tensor": {"dtype": "DT_FLOAT", "tensorShape": {"dim": [{"size": "32"}]}}}, "dtype": {"type": "DT_FLOAT"}}}, {"name": "model_13/tf.compat.v1.pad_2/Pad/paddings", "op": "Const", "attr": {"value": {"tensor": {"dtype": "DT_INT32", "tensorShape": {"dim": [{"size": "4"}, {"size": "2"}]}}}, "dtype": {"type": "DT_INT32"}}}, {"name": "model_13/tf.nn.convolution_6/convolution/filter", "op": "Const", "attr": {"dtype": {"type": "DT_FLOAT"}, "value": {"tensor": {"dtype": "DT_FLOAT", "tensorShape": {"dim": [{"size": "3"}, {"size": "3"}, {"size": "32"}, {"size": "64"}]}}}}}, {"name": "model_13/tf.math.add_8/Add/y", "op": "Const", "attr": {"dtype": {"type": "DT_FLOAT"}, "value": {"tensor": {"dtype": "DT_FLOAT", "tensorShape": {"dim": [{"size": "64"}]}}}}}, {"name": "model_13/tf.nn.convolution_7/convolution/filter", "op": "Const", "attr": {"value": {"tensor": {"dtype": "DT_FLOAT", "tensorShape": {"dim": [{"size": "1"}, {"size": "1"}, {"size": "64"}, {"size": "64"}]}}}, "dtype": {"type": "DT_FLOAT"}}}, {"name": "model_13/tf.math.add_9/Add/y", "op": "Const", "attr": {"value": {"tensor": {"dtype": "DT_FLOAT", "tensorShape": {"dim": [{"size": "64"}]}}}, "dtype": {"type": "DT_FLOAT"}}}, {"name": "model_13/tf.strided_slice_3/ones_like/tensor", "op": "Const", "attr": {"dtype": {"type": "DT_INT64"}, "value": {"tensor": {"dtype": "DT_INT64", "tensorShape": {"dim": [{"size": "4"}]}}}}}, {"name": "model_13/tf.strided_slice_3/StridedSlice/end", "op": "Const", "attr": {"dtype": {"type": "DT_INT64"}, "value": {"tensor": {"dtype": "DT_INT64", "tensorShape": {"dim": [{"size": "4"}]}}}}}, {"name": "model_13/tf.strided_slice_3/ones_like", "op": "Const", "attr": {"dtype": {"type": "DT_INT64"}, "value": {"tensor": {"dtype": "DT_INT64", "tensorShape": {"dim": [{"size": "4"}]}}}}}, {"name": "model_13/tf.nn.convolution_8/convolution/filter", "op": "Const", "attr": {"dtype": {"type": "DT_FLOAT"}, "value": {"tensor": {"dtype": "DT_FLOAT", "tensorShape": {"dim": [{"size": "3"}, {"size": "3"}, {"size": "32"}, {"size": "32"}]}}}}}, {"name": "model_13/tf.math.add_10/Add/y", "op": "Const", "attr": {"value": {"tensor": {"dtype": "DT_FLOAT", "tensorShape": {"dim": [{"size": "32"}]}}}, "dtype": {"type": "DT_FLOAT"}}}, {"name": "model_13/tf.nn.convolution_9/convolution/filter", "op": "Const", "attr": {"value": {"tensor": {"dtype": "DT_FLOAT", "tensorShape": {"dim": [{"size": "3"}, {"size": "3"}, {"size": "32"}, {"size": "32"}]}}}, "dtype": {"type": "DT_FLOAT"}}}, {"name": "model_13/tf.math.add_11/Add/y", "op": "Const", "attr": {"dtype": {"type": "DT_FLOAT"}, "value": {"tensor": {"dtype": "DT_FLOAT", "tensorShape": {"dim": [{"size": "32"}]}}}}}, {"name": "model_13/tf.nn.convolution_10/convolution/filter", "op": "Const", "attr": {"dtype": {"type": "DT_FLOAT"}, "value": {"tensor": {"dtype": "DT_FLOAT", "tensorShape": {"dim": [{"size": "3"}, {"size": "3"}, {"size": "32"}, {"size": "32"}]}}}}}, {"name": "model_13/tf.math.add_14/Add/y", "op": "Const", "attr": {"value": {"tensor": {"dtype": "DT_FLOAT", "tensorShape": {"dim": [{"size": "32"}]}}}, "dtype": {"type": "DT_FLOAT"}}}, {"name": "model_13/tf.nn.convolution_11/convolution/filter", "op": "Const", "attr": {"value": {"tensor": {"dtype": "DT_FLOAT", "tensorShape": {"dim": [{"size": "3"}, {"size": "3"}, {"size": "32"}, {"size": "32"}]}}}, "dtype": {"type": "DT_FLOAT"}}}, {"name": "model_13/tf.math.add_15/Add/y", "op": "Const", "attr": {"value": {"tensor": {"dtype": "DT_FLOAT", "tensorShape": {"dim": [{"size": "32"}]}}}, "dtype": {"type": "DT_FLOAT"}}}, {"name": "model_13/tf.concat_1/concat/axis", "op": "Const", "attr": {"dtype": {"type": "DT_INT32"}, "value": {"tensor": {"dtype": "DT_INT32", "tensorShape": {}}}}}, {"name": "model_13/tf.nn.convolution_12/convolution/filter", "op": "Const", "attr": {"dtype": {"type": "DT_FLOAT"}, "value": {"tensor": {"dtype": "DT_FLOAT", "tensorShape": {"dim": [{"size": "1"}, {"size": "1"}, {"size": "128"}, {"size": "64"}]}}}}}, {"name": "model_13/tf.math.add_18/Add/y", "op": "Const", "attr": {"value": {"tensor": {"dtype": "DT_FLOAT", "tensorShape": {"dim": [{"size": "64"}]}}}, "dtype": {"type": "DT_FLOAT"}}}, {"name": "model_13/tf.compat.v1.pad_3/Pad/paddings", "op": "Const", "attr": {"value": {"tensor": {"dtype": "DT_INT32", "tensorShape": {"dim": [{"size": "4"}, {"size": "2"}]}}}, "dtype": {"type": "DT_INT32"}}}, {"name": "model_13/tf.nn.convolution_13/convolution/filter", "op": "Const", "attr": {"dtype": {"type": "DT_FLOAT"}, "value": {"tensor": {"dtype": "DT_FLOAT", "tensorShape": {"dim": [{"size": "3"}, {"size": "3"}, {"size": "64"}, {"size": "128"}]}}}}}, {"name": "model_13/tf.math.add_19/Add/y", "op": "Const", "attr": {"dtype": {"type": "DT_FLOAT"}, "value": {"tensor": {"dtype": "DT_FLOAT", "tensorShape": {"dim": [{"size": "128"}]}}}}}, {"name": "model_13/tf.nn.convolution_14/convolution/filter", "op": "Const", "attr": {"value": {"tensor": {"dtype": "DT_FLOAT", "tensorShape": {"dim": [{"size": "1"}, {"size": "1"}, {"size": "128"}, {"size": "128"}]}}}, "dtype": {"type": "DT_FLOAT"}}}, {"name": "model_13/tf.math.add_20/Add/y", "op": "Const", "attr": {"dtype": {"type": "DT_FLOAT"}, "value": {"tensor": {"dtype": "DT_FLOAT", "tensorShape": {"dim": [{"size": "128"}]}}}}}, {"name": "model_13/tf.strided_slice_5/ones_like/tensor", "op": "Const", "attr": {"dtype": {"type": "DT_INT64"}, "value": {"tensor": {"dtype": "DT_INT64", "tensorShape": {"dim": [{"size": "4"}]}}}}}, {"name": "model_13/tf.strided_slice_5/StridedSlice/end", "op": "Const", "attr": {"dtype": {"type": "DT_INT64"}, "value": {"tensor": {"dtype": "DT_INT64", "tensorShape": {"dim": [{"size": "4"}]}}}}}, {"name": "model_13/tf.strided_slice_5/ones_like", "op": "Const", "attr": {"value": {"tensor": {"dtype": "DT_INT64", "tensorShape": {"dim": [{"size": "4"}]}}}, "dtype": {"type": "DT_INT64"}}}, {"name": "model_13/tf.nn.convolution_15/convolution/filter", "op": "Const", "attr": {"dtype": {"type": "DT_FLOAT"}, "value": {"tensor": {"dtype": "DT_FLOAT", "tensorShape": {"dim": [{"size": "3"}, {"size": "3"}, {"size": "64"}, {"size": "64"}]}}}}}, {"name": "model_13/tf.math.add_21/Add/y", "op": "Const", "attr": {"dtype": {"type": "DT_FLOAT"}, "value": {"tensor": {"dtype": "DT_FLOAT", "tensorShape": {"dim": [{"size": "64"}]}}}}}, {"name": "model_13/tf.nn.convolution_16/convolution/filter", "op": "Const", "attr": {"value": {"tensor": {"dtype": "DT_FLOAT", "tensorShape": {"dim": [{"size": "3"}, {"size": "3"}, {"size": "64"}, {"size": "64"}]}}}, "dtype": {"type": "DT_FLOAT"}}}, {"name": "model_13/tf.math.add_22/Add/y", "op": "Const", "attr": {"value": {"tensor": {"dtype": "DT_FLOAT", "tensorShape": {"dim": [{"size": "64"}]}}}, "dtype": {"type": "DT_FLOAT"}}}, {"name": "model_13/tf.nn.convolution_17/convolution/filter", "op": "Const", "attr": {"value": {"tensor": {"dtype": "DT_FLOAT", "tensorShape": {"dim": [{"size": "3"}, {"size": "3"}, {"size": "64"}, {"size": "64"}]}}}, "dtype": {"type": "DT_FLOAT"}}}, {"name": "model_13/tf.math.add_25/Add/y", "op": "Const", "attr": {"value": {"tensor": {"dtype": "DT_FLOAT", "tensorShape": {"dim": [{"size": "64"}]}}}, "dtype": {"type": "DT_FLOAT"}}}, {"name": "model_13/tf.nn.convolution_18/convolution/filter", "op": "Const", "attr": {"dtype": {"type": "DT_FLOAT"}, "value": {"tensor": {"dtype": "DT_FLOAT", "tensorShape": {"dim": [{"size": "3"}, {"size": "3"}, {"size": "64"}, {"size": "64"}]}}}}}, {"name": "model_13/tf.math.add_26/Add/y", "op": "Const", "attr": {"dtype": {"type": "DT_FLOAT"}, "value": {"tensor": {"dtype": "DT_FLOAT", "tensorShape": {"dim": [{"size": "64"}]}}}}}, {"name": "model_13/tf.concat_2/concat/axis", "op": "Const", "attr": {"value": {"tensor": {"dtype": "DT_INT32", "tensorShape": {}}}, "dtype": {"type": "DT_INT32"}}}, {"name": "model_13/tf.nn.convolution_19/convolution/filter", "op": "Const", "attr": {"dtype": {"type": "DT_FLOAT"}, "value": {"tensor": {"dtype": "DT_FLOAT", "tensorShape": {"dim": [{"size": "1"}, {"size": "1"}, {"size": "256"}, {"size": "128"}]}}}}}, {"name": "model_13/tf.math.add_29/Add/y", "op": "Const", "attr": {"value": {"tensor": {"dtype": "DT_FLOAT", "tensorShape": {"dim": [{"size": "128"}]}}}, "dtype": {"type": "DT_FLOAT"}}}, {"name": "model_13/tf.compat.v1.pad_4/Pad/paddings", "op": "Const", "attr": {"dtype": {"type": "DT_INT32"}, "value": {"tensor": {"dtype": "DT_INT32", "tensorShape": {"dim": [{"size": "4"}, {"size": "2"}]}}}}}, {"name": "model_13/tf.nn.convolution_20/convolution/filter", "op": "Const", "attr": {"dtype": {"type": "DT_FLOAT"}, "value": {"tensor": {"dtype": "DT_FLOAT", "tensorShape": {"dim": [{"size": "3"}, {"size": "3"}, {"size": "128"}, {"size": "256"}]}}}}}, {"name": "model_13/tf.math.add_30/Add/y", "op": "Const", "attr": {"value": {"tensor": {"dtype": "DT_FLOAT", "tensorShape": {"dim": [{"size": "256"}]}}}, "dtype": {"type": "DT_FLOAT"}}}, {"name": "model_13/tf.nn.convolution_21/convolution/filter", "op": "Const", "attr": {"value": {"tensor": {"dtype": "DT_FLOAT", "tensorShape": {"dim": [{"size": "1"}, {"size": "1"}, {"size": "256"}, {"size": "256"}]}}}, "dtype": {"type": "DT_FLOAT"}}}, {"name": "model_13/tf.math.add_31/Add/y", "op": "Const", "attr": {"value": {"tensor": {"dtype": "DT_FLOAT", "tensorShape": {"dim": [{"size": "256"}]}}}, "dtype": {"type": "DT_FLOAT"}}}, {"name": "model_13/tf.strided_slice_7/ones_like/tensor", "op": "Const", "attr": {"value": {"tensor": {"dtype": "DT_INT64", "tensorShape": {"dim": [{"size": "4"}]}}}, "dtype": {"type": "DT_INT64"}}}, {"name": "model_13/tf.strided_slice_7/StridedSlice/end", "op": "Const", "attr": {"value": {"tensor": {"dtype": "DT_INT64", "tensorShape": {"dim": [{"size": "4"}]}}}, "dtype": {"type": "DT_INT64"}}}, {"name": "model_13/tf.strided_slice_7/ones_like", "op": "Const", "attr": {"value": {"tensor": {"dtype": "DT_INT64", "tensorShape": {"dim": [{"size": "4"}]}}}, "dtype": {"type": "DT_INT64"}}}, {"name": "model_13/tf.nn.convolution_22/convolution/filter", "op": "Const", "attr": {"value": {"tensor": {"dtype": "DT_FLOAT", "tensorShape": {"dim": [{"size": "3"}, {"size": "3"}, {"size": "128"}, {"size": "128"}]}}}, "dtype": {"type": "DT_FLOAT"}}}, {"name": "model_13/tf.math.add_32/Add/y", "op": "Const", "attr": {"value": {"tensor": {"dtype": "DT_FLOAT", "tensorShape": {"dim": [{"size": "128"}]}}}, "dtype": {"type": "DT_FLOAT"}}}, {"name": "model_13/tf.nn.convolution_23/convolution/filter", "op": "Const", "attr": {"value": {"tensor": {"dtype": "DT_FLOAT", "tensorShape": {"dim": [{"size": "3"}, {"size": "3"}, {"size": "128"}, {"size": "128"}]}}}, "dtype": {"type": "DT_FLOAT"}}}, {"name": "model_13/tf.math.add_33/Add/y", "op": "Const", "attr": {"dtype": {"type": "DT_FLOAT"}, "value": {"tensor": {"dtype": "DT_FLOAT", "tensorShape": {"dim": [{"size": "128"}]}}}}}, {"name": "model_13/tf.concat_3/concat/axis", "op": "Const", "attr": {"dtype": {"type": "DT_INT32"}, "value": {"tensor": {"dtype": "DT_INT32", "tensorShape": {}}}}}, {"name": "model_13/tf.nn.convolution_24/convolution/filter", "op": "Const", "attr": {"dtype": {"type": "DT_FLOAT"}, "value": {"tensor": {"dtype": "DT_FLOAT", "tensorShape": {"dim": [{"size": "1"}, {"size": "1"}, {"size": "384"}, {"size": "256"}]}}}}}, {"name": "model_13/tf.math.add_36/Add/y", "op": "Const", "attr": {"value": {"tensor": {"dtype": "DT_FLOAT", "tensorShape": {"dim": [{"size": "256"}]}}}, "dtype": {"type": "DT_FLOAT"}}}, {"name": "model_13/tf.nn.convolution_25/convolution/filter", "op": "Const", "attr": {"dtype": {"type": "DT_FLOAT"}, "value": {"tensor": {"dtype": "DT_FLOAT", "tensorShape": {"dim": [{"size": "1"}, {"size": "1"}, {"size": "256"}, {"size": "128"}]}}}}}, {"name": "model_13/tf.math.add_37/Add/y", "op": "Const", "attr": {"value": {"tensor": {"dtype": "DT_FLOAT", "tensorShape": {"dim": [{"size": "128"}]}}}, "dtype": {"type": "DT_FLOAT"}}}, {"name": "model_13/tf.concat_4/concat/axis", "op": "Const", "attr": {"value": {"tensor": {"dtype": "DT_INT32", "tensorShape": {}}}, "dtype": {"type": "DT_INT32"}}}, {"name": "model_13/tf.nn.convolution_26/convolution/filter", "op": "Const", "attr": {"dtype": {"type": "DT_FLOAT"}, "value": {"tensor": {"dtype": "DT_FLOAT", "tensorShape": {"dim": [{"size": "1"}, {"size": "1"}, {"size": "512"}, {"size": "256"}]}}}}}, {"name": "model_13/tf.math.add_38/Add/y", "op": "Const", "attr": {"value": {"tensor": {"dtype": "DT_FLOAT", "tensorShape": {"dim": [{"size": "256"}]}}}, "dtype": {"type": "DT_FLOAT"}}}, {"name": "model_13/tf.concat_12/concat/axis", "op": "Const", "attr": {"value": {"tensor": {"dtype": "DT_INT32", "tensorShape": {}}}, "dtype": {"type": "DT_INT32"}}}, {"name": "model_13/tf.nn.convolution_51/convolution/filter", "op": "Const", "attr": {"dtype": {"type": "DT_FLOAT"}, "value": {"tensor": {"dtype": "DT_FLOAT", "tensorShape": {"dim": [{"size": "1"}, {"size": "1"}, {"size": "384"}, {"size": "256"}]}}}}}, {"name": "model_13/tf.math.add_63/Add/y", "op": "Const", "attr": {"dtype": {"type": "DT_FLOAT"}, "value": {"tensor": {"dtype": "DT_FLOAT", "tensorShape": {"dim": [{"size": "256"}]}}}}}, {"name": "model_13/tf.strided_slice_15/ones_like/tensor", "op": "Const", "attr": {"value": {"tensor": {"dtype": "DT_INT64", "tensorShape": {"dim": [{"size": "4"}]}}}, "dtype": {"type": "DT_INT64"}}}, {"name": "model_13/tf.strided_slice_15/StridedSlice/end", "op": "Const", "attr": {"dtype": {"type": "DT_INT64"}, "value": {"tensor": {"dtype": "DT_INT64", "tensorShape": {"dim": [{"size": "4"}]}}}}}, {"name": "model_13/tf.strided_slice_15/ones_like", "op": "Const", "attr": {"dtype": {"type": "DT_INT64"}, "value": {"tensor": {"dtype": "DT_INT64", "tensorShape": {"dim": [{"size": "4"}]}}}}}, {"name": "model_13/tf.nn.convolution_54/convolution/filter", "op": "Const", "attr": {"value": {"tensor": {"dtype": "DT_FLOAT", "tensorShape": {"dim": [{"size": "3"}, {"size": "3"}, {"size": "128"}, {"size": "128"}]}}}, "dtype": {"type": "DT_FLOAT"}}}, {"name": "model_13/tf.math.add_66/Add/y", "op": "Const", "attr": {"value": {"tensor": {"dtype": "DT_FLOAT", "tensorShape": {"dim": [{"size": "128"}]}}}, "dtype": {"type": "DT_FLOAT"}}}, {"name": "model_13/tf.nn.convolution_55/convolution/filter", "op": "Const", "attr": {"value": {"tensor": {"dtype": "DT_FLOAT", "tensorShape": {"dim": [{"size": "3"}, {"size": "3"}, {"size": "128"}, {"size": "128"}]}}}, "dtype": {"type": "DT_FLOAT"}}}, {"name": "model_13/tf.math.add_67/Add/y", "op": "Const", "attr": {"dtype": {"type": "DT_FLOAT"}, "value": {"tensor": {"dtype": "DT_FLOAT", "tensorShape": {"dim": [{"size": "128"}]}}}}}, {"name": "model_13/tf.concat_14/concat/axis", "op": "Const", "attr": {"dtype": {"type": "DT_INT32"}, "value": {"tensor": {"dtype": "DT_INT32", "tensorShape": {}}}}}, {"name": "model_13/tf.nn.convolution_56/convolution/filter", "op": "Const", "attr": {"value": {"tensor": {"dtype": "DT_FLOAT", "tensorShape": {"dim": [{"size": "1"}, {"size": "1"}, {"size": "384"}, {"size": "256"}]}}}, "dtype": {"type": "DT_FLOAT"}}}, {"name": "model_13/tf.math.add_68/Add/y", "op": "Const", "attr": {"value": {"tensor": {"dtype": "DT_FLOAT", "tensorShape": {"dim": [{"size": "256"}]}}}, "dtype": {"type": "DT_FLOAT"}}}, {"name": "model_13/tf.nn.convolution_58/convolution/filter", "op": "Const", "attr": {"value": {"tensor": {"dtype": "DT_FLOAT", "tensorShape": {"dim": [{"size": "3"}, {"size": "3"}, {"size": "256"}, {"size": "64"}]}}}, "dtype": {"type": "DT_FLOAT"}}}, {"name": "model_13/tf.math.add_70/Add/y", "op": "Const", "attr": {"value": {"tensor": {"dtype": "DT_FLOAT", "tensorShape": {"dim": [{"size": "64"}]}}}, "dtype": {"type": "DT_FLOAT"}}}, {"name": "model_13/tf.nn.convolution_60/convolution/filter", "op": "Const", "attr": {"value": {"tensor": {"dtype": "DT_FLOAT", "tensorShape": {"dim": [{"size": "3"}, {"size": "3"}, {"size": "64"}, {"size": "64"}]}}}, "dtype": {"type": "DT_FLOAT"}}}, {"name": "model_13/tf.math.add_72/Add/y", "op": "Const", "attr": {"value": {"tensor": {"dtype": "DT_FLOAT", "tensorShape": {"dim": [{"size": "64"}]}}}, "dtype": {"type": "DT_FLOAT"}}}, {"name": "model_13/tf.nn.convolution_62/convolution/filter", "op": "Const", "attr": {"dtype": {"type": "DT_FLOAT"}, "value": {"tensor": {"dtype": "DT_FLOAT", "tensorShape": {"dim": [{"size": "1"}, {"size": "1"}, {"size": "64"}, {"size": "2"}]}}}}}, {"name": "model_13/tf.math.add_74/Add/y", "op": "Const", "attr": {"dtype": {"type": "DT_FLOAT"}, "value": {"tensor": {"dtype": "DT_FLOAT", "tensorShape": {"dim": [{"size": "2"}]}}}}}, {"name": "model_13/tf.concat_15/concat/axis", "op": "Const", "attr": {"value": {"tensor": {"dtype": "DT_INT32", "tensorShape": {}}}, "dtype": {"type": "DT_INT32"}}}, {"name": "model_13/tf.compat.v1.transpose_12/transpose/perm", "op": "Const", "attr": {"dtype": {"type": "DT_INT32"}, "value": {"tensor": {"dtype": "DT_INT32", "tensorShape": {"dim": [{"size": "4"}]}}}}}, {"name": "model_13/tf.reshape_8/Reshape/shape", "op": "Const", "attr": {"value": {"tensor": {"dtype": "DT_INT32", "tensorShape": {"dim": [{"size": "3"}]}}}, "dtype": {"type": "DT_INT32"}}}, {"name": "model_13/tf.concat_16/concat/axis", "op": "Const", "attr": {"dtype": {"type": "DT_INT32"}, "value": {"tensor": {"dtype": "DT_INT32", "tensorShape": {}}}}}, {"name": "model_13/tf.strided_slice_17/StridedSlice/begin", "op": "Const", "attr": {"value": {"tensor": {"dtype": "DT_INT64", "tensorShape": {"dim": [{"size": "3"}]}}}, "dtype": {"type": "DT_INT64"}}}, {"name": "model_13/tf.strided_slice_17/StridedSlice/end", "op": "Const", "attr": {"dtype": {"type": "DT_INT64"}, "value": {"tensor": {"dtype": "DT_INT64", "tensorShape": {"dim": [{"size": "3"}]}}}}}, {"name": "model_13/tf.strided_slice_17/StridedSlice/strides", "op": "Const", "attr": {"dtype": {"type": "DT_INT64"}, "value": {"tensor": {"dtype": "DT_INT64", "tensorShape": {"dim": [{"size": "3"}]}}}}}, {"name": "model_13/output0/concat/axis", "op": "Const", "attr": {"dtype": {"type": "DT_INT32"}, "value": {"tensor": {"dtype": "DT_INT32", "tensorShape": {}}}}}, {"name": "x", "op": "Placeholder", "attr": {"dtype": {"type": "DT_FLOAT"}, "shape": {"shape": {"dim": [{"size": "1"}, {"size": "640"}, {"size": "640"}, {"size": "3"}]}}}}, {"name": "model_13/tf.compat.v1.pad/Pad", "op": "Pad", "input": ["x", "model_13/tf.compat.v1.pad/Pad/paddings"], "attr": {"T": {"type": "DT_FLOAT"}, "Tpaddings": {"type": "DT_INT32"}}}, {"name": "model_13/tf.math.add/Add", "op": "_FusedConv2D", "input": ["model_13/tf.compat.v1.pad/Pad", "model_13/tf.nn.convolution/convolution/filter", "model_13/tf.math.add/Add/y"], "device": "/device:CPU:0", "attr": {"leakyrelu_alpha": {"f": 0.2}, "filter_format": {"s": "SFdJTw=="}, "dilations": {"list": {"i": ["1", "1", "1", "1"]}}, "num_host_args": {"i": "0"}, "use_cudnn_on_gpu": {"b": true}, "padding": {"s": "VkFMSUQ="}, "epsilon": {"f": 0.0}, "data_format": {"s": "TkhXQw=="}, "strides": {"list": {"i": ["1", "2", "2", "1"]}}, "fused_ops": {"list": {"s": ["Qmlhc0FkZA=="]}}, "explicit_paddings": {"list": {}}, "TArgs": {"list": {"type": ["DT_FLOAT"]}}, "num_args": {"i": "1"}, "T": {"type": "DT_FLOAT"}}}, {"name": "model_13/tf.math.sigmoid/Sigmoid", "op": "Sigmoid", "input": ["model_13/tf.math.add/Add"], "attr": {"T": {"type": "DT_FLOAT"}}}, {"name": "model_13/tf.math.multiply_3/Mul", "op": "Mul", "input": ["model_13/tf.math.add/Add", "model_13/tf.math.sigmoid/Sigmoid"], "attr": {"T": {"type": "DT_FLOAT"}}}, {"name": "model_13/tf.compat.v1.pad_1/Pad", "op": "Pad", "input": ["model_13/tf.math.multiply_3/Mul", "model_13/tf.compat.v1.pad_1/Pad/paddings"], "attr": {"Tpaddings": {"type": "DT_INT32"}, "T": {"type": "DT_FLOAT"}}}, {"name": "model_13/tf.math.add_1/Add", "op": "_FusedConv2D", "input": ["model_13/tf.compat.v1.pad_1/Pad", "model_13/tf.nn.convolution_1/convolution/filter", "model_13/tf.math.add_1/Add/y"], "device": "/device:CPU:0", "attr": {"data_format": {"s": "TkhXQw=="}, "epsilon": {"f": 0.0}, "padding": {"s": "VkFMSUQ="}, "num_args": {"i": "1"}, "fused_ops": {"list": {"s": ["Qmlhc0FkZA=="]}}, "strides": {"list": {"i": ["1", "2", "2", "1"]}}, "TArgs": {"list": {"type": ["DT_FLOAT"]}}, "T": {"type": "DT_FLOAT"}, "use_cudnn_on_gpu": {"b": true}, "explicit_paddings": {"list": {}}, "num_host_args": {"i": "0"}, "dilations": {"list": {"i": ["1", "1", "1", "1"]}}, "filter_format": {"s": "SFdJTw=="}, "leakyrelu_alpha": {"f": 0.2}}}, {"name": "model_13/tf.math.sigmoid_1/Sigmoid", "op": "Sigmoid", "input": ["model_13/tf.math.add_1/Add"], "attr": {"T": {"type": "DT_FLOAT"}}}, {"name": "model_13/tf.math.multiply_7/Mul", "op": "Mul", "input": ["model_13/tf.math.add_1/Add", "model_13/tf.math.sigmoid_1/Sigmoid"], "attr": {"T": {"type": "DT_FLOAT"}}}, {"name": "model_13/tf.math.add_2/Add", "op": "_FusedConv2D", "input": ["model_13/tf.math.multiply_7/Mul", "model_13/tf.nn.convolution_2/convolution/filter", "model_13/tf.math.add_2/Add/y"], "device": "/device:CPU:0", "attr": {"num_host_args": {"i": "0"}, "TArgs": {"list": {"type": ["DT_FLOAT"]}}, "padding": {"s": "U0FNRQ=="}, "data_format": {"s": "TkhXQw=="}, "use_cudnn_on_gpu": {"b": true}, "epsilon": {"f": 0.0}, "leakyrelu_alpha": {"f": 0.2}, "filter_format": {"s": "SFdJTw=="}, "dilations": {"list": {"i": ["1", "1", "1", "1"]}}, "explicit_paddings": {"list": {}}, "T": {"type": "DT_FLOAT"}, "fused_ops": {"list": {"s": ["Qmlhc0FkZA=="]}}, "strides": {"list": {"i": ["1", "1", "1", "1"]}}, "num_args": {"i": "1"}}}, {"name": "model_13/tf.math.sigmoid_2/Sigmoid", "op": "Sigmoid", "input": ["model_13/tf.math.add_2/Add"], "attr": {"T": {"type": "DT_FLOAT"}}}, {"name": "model_13/tf.math.multiply_11/Mul", "op": "Mul", "input": ["model_13/tf.math.add_2/Add", "model_13/tf.math.sigmoid_2/Sigmoid"], "attr": {"T": {"type": "DT_FLOAT"}}}, {"name": "model_13/tf.strided_slice/StridedSlice", "op": "StridedSlice", "input": ["model_13/tf.math.multiply_11/Mul", "model_13/tf.strided_slice/ones_like/tensor", "model_13/tf.strided_slice/StridedSlice/end", "model_13/tf.strided_slice/ones_like"], "attr": {"new_axis_mask": {"i": "0"}, "shrink_axis_mask": {"i": "0"}, "Index": {"type": "DT_INT64"}, "ellipsis_mask": {"i": "0"}, "T": {"type": "DT_FLOAT"}, "begin_mask": {"i": "15"}, "end_mask": {"i": "7"}}}, {"name": "model_13/tf.strided_slice_1/StridedSlice", "op": "StridedSlice", "input": ["model_13/tf.math.multiply_11/Mul", "model_13/tf.strided_slice_1/ones_like/tensor", "model_13/tf.strided_slice_1/StridedSlice/end", "model_13/tf.strided_slice_1/ones_like"], "attr": {"end_mask": {"i": "7"}, "begin_mask": {"i": "7"}, "T": {"type": "DT_FLOAT"}, "ellipsis_mask": {"i": "0"}, "new_axis_mask": {"i": "0"}, "shrink_axis_mask": {"i": "0"}, "Index": {"type": "DT_INT64"}}}, {"name": "model_13/tf.math.add_3/Add", "op": "_FusedConv2D", "input": ["model_13/tf.strided_slice_1/StridedSlice", "model_13/tf.nn.convolution_3/convolution/filter", "model_13/tf.math.add_3/Add/y"], "device": "/device:CPU:0", "attr": {"fused_ops": {"list": {"s": ["Qmlhc0FkZA=="]}}, "data_format": {"s": "TkhXQw=="}, "filter_format": {"s": "SFdJTw=="}, "padding": {"s": "U0FNRQ=="}, "num_host_args": {"i": "0"}, "explicit_paddings": {"list": {}}, "dilations": {"list": {"i": ["1", "1", "1", "1"]}}, "num_args": {"i": "1"}, "use_cudnn_on_gpu": {"b": true}, "TArgs": {"list": {"type": ["DT_FLOAT"]}}, "T": {"type": "DT_FLOAT"}, "epsilon": {"f": 0.0}, "leakyrelu_alpha": {"f": 0.2}, "strides": {"list": {"i": ["1", "1", "1", "1"]}}}}, {"name": "model_13/tf.math.sigmoid_3/Sigmoid", "op": "Sigmoid", "input": ["model_13/tf.math.add_3/Add"], "attr": {"T": {"type": "DT_FLOAT"}}}, {"name": "model_13/tf.math.multiply_15/Mul", "op": "Mul", "input": ["model_13/tf.math.add_3/Add", "model_13/tf.math.sigmoid_3/Sigmoid"], "attr": {"T": {"type": "DT_FLOAT"}}}, {"name": "model_13/tf.math.add_4/Add", "op": "_FusedConv2D", "input": ["model_13/tf.math.multiply_15/Mul", "model_13/tf.nn.convolution_4/convolution/filter", "model_13/tf.math.add_4/Add/y"], "device": "/device:CPU:0", "attr": {"padding": {"s": "U0FNRQ=="}, "TArgs": {"list": {"type": ["DT_FLOAT"]}}, "fused_ops": {"list": {"s": ["Qmlhc0FkZA=="]}}, "num_host_args": {"i": "0"}, "leakyrelu_alpha": {"f": 0.2}, "T": {"type": "DT_FLOAT"}, "strides": {"list": {"i": ["1", "1", "1", "1"]}}, "use_cudnn_on_gpu": {"b": true}, "explicit_paddings": {"list": {}}, "epsilon": {"f": 0.0}, "filter_format": {"s": "SFdJTw=="}, "data_format": {"s": "TkhXQw=="}, "num_args": {"i": "1"}, "dilations": {"list": {"i": ["1", "1", "1", "1"]}}}}, {"name": "model_13/tf.math.sigmoid_4/Sigmoid", "op": "Sigmoid", "input": ["model_13/tf.math.add_4/Add"], "attr": {"T": {"type": "DT_FLOAT"}}}, {"name": "model_13/tf.math.multiply_19/Mul", "op": "Mul", "input": ["model_13/tf.math.add_4/Add", "model_13/tf.math.sigmoid_4/Sigmoid"], "attr": {"T": {"type": "DT_FLOAT"}}}, {"name": "model_13/tf.math.add_6/Add", "op": "AddV2", "input": ["model_13/tf.strided_slice_1/StridedSlice", "model_13/tf.math.multiply_19/Mul"], "attr": {"T": {"type": "DT_FLOAT"}}}, {"name": "model_13/tf.concat/concat", "op": "ConcatV2", "input": ["model_13/tf.strided_slice/StridedSlice", "model_13/tf.strided_slice_1/StridedSlice", "model_13/tf.math.add_6/Add", "model_13/tf.concat/concat/axis"], "attr": {"N": {"i": "3"}, "T": {"type": "DT_FLOAT"}, "Tidx": {"type": "DT_INT32"}}}, {"name": "model_13/tf.math.add_7/Add", "op": "_FusedConv2D", "input": ["model_13/tf.concat/concat", "model_13/tf.nn.convolution_5/convolution/filter", "model_13/tf.math.add_7/Add/y"], "device": "/device:CPU:0", "attr": {"epsilon": {"f": 0.0}, "padding": {"s": "U0FNRQ=="}, "num_args": {"i": "1"}, "data_format": {"s": "TkhXQw=="}, "explicit_paddings": {"list": {}}, "use_cudnn_on_gpu": {"b": true}, "TArgs": {"list": {"type": ["DT_FLOAT"]}}, "dilations": {"list": {"i": ["1", "1", "1", "1"]}}, "strides": {"list": {"i": ["1", "1", "1", "1"]}}, "T": {"type": "DT_FLOAT"}, "leakyrelu_alpha": {"f": 0.2}, "filter_format": {"s": "SFdJTw=="}, "num_host_args": {"i": "0"}, "fused_ops": {"list": {"s": ["Qmlhc0FkZA=="]}}}}, {"name": "model_13/tf.math.sigmoid_5/Sigmoid", "op": "Sigmoid", "input": ["model_13/tf.math.add_7/Add"], "attr": {"T": {"type": "DT_FLOAT"}}}, {"name": "model_13/tf.math.multiply_25/Mul", "op": "Mul", "input": ["model_13/tf.math.add_7/Add", "model_13/tf.math.sigmoid_5/Sigmoid"], "attr": {"T": {"type": "DT_FLOAT"}}}, {"name": "model_13/tf.compat.v1.pad_2/Pad", "op": "Pad", "input": ["model_13/tf.math.multiply_25/Mul", "model_13/tf.compat.v1.pad_2/Pad/paddings"], "attr": {"T": {"type": "DT_FLOAT"}, "Tpaddings": {"type": "DT_INT32"}}}, {"name": "model_13/tf.math.add_8/Add", "op": "_FusedConv2D", "input": ["model_13/tf.compat.v1.pad_2/Pad", "model_13/tf.nn.convolution_6/convolution/filter", "model_13/tf.math.add_8/Add/y"], "device": "/device:CPU:0", "attr": {"filter_format": {"s": "SFdJTw=="}, "epsilon": {"f": 0.0}, "explicit_paddings": {"list": {}}, "dilations": {"list": {"i": ["1", "1", "1", "1"]}}, "fused_ops": {"list": {"s": ["Qmlhc0FkZA=="]}}, "num_args": {"i": "1"}, "T": {"type": "DT_FLOAT"}, "strides": {"list": {"i": ["1", "2", "2", "1"]}}, "num_host_args": {"i": "0"}, "use_cudnn_on_gpu": {"b": true}, "leakyrelu_alpha": {"f": 0.2}, "data_format": {"s": "TkhXQw=="}, "padding": {"s": "VkFMSUQ="}, "TArgs": {"list": {"type": ["DT_FLOAT"]}}}}, {"name": "model_13/tf.math.sigmoid_6/Sigmoid", "op": "Sigmoid", "input": ["model_13/tf.math.add_8/Add"], "attr": {"T": {"type": "DT_FLOAT"}}}, {"name": "model_13/tf.math.multiply_29/Mul", "op": "Mul", "input": ["model_13/tf.math.add_8/Add", "model_13/tf.math.sigmoid_6/Sigmoid"], "attr": {"T": {"type": "DT_FLOAT"}}}, {"name": "model_13/tf.math.add_9/Add", "op": "_FusedConv2D", "input": ["model_13/tf.math.multiply_29/Mul", "model_13/tf.nn.convolution_7/convolution/filter", "model_13/tf.math.add_9/Add/y"], "device": "/device:CPU:0", "attr": {"num_host_args": {"i": "0"}, "explicit_paddings": {"list": {}}, "strides": {"list": {"i": ["1", "1", "1", "1"]}}, "epsilon": {"f": 0.0}, "fused_ops": {"list": {"s": ["Qmlhc0FkZA=="]}}, "TArgs": {"list": {"type": ["DT_FLOAT"]}}, "leakyrelu_alpha": {"f": 0.2}, "num_args": {"i": "1"}, "data_format": {"s": "TkhXQw=="}, "T": {"type": "DT_FLOAT"}, "padding": {"s": "U0FNRQ=="}, "use_cudnn_on_gpu": {"b": true}, "dilations": {"list": {"i": ["1", "1", "1", "1"]}}, "filter_format": {"s": "SFdJTw=="}}}, {"name": "model_13/tf.math.sigmoid_7/Sigmoid", "op": "Sigmoid", "input": ["model_13/tf.math.add_9/Add"], "attr": {"T": {"type": "DT_FLOAT"}}}, {"name": "model_13/tf.math.multiply_33/Mul", "op": "Mul", "input": ["model_13/tf.math.add_9/Add", "model_13/tf.math.sigmoid_7/Sigmoid"], "attr": {"T": {"type": "DT_FLOAT"}}}, {"name": "model_13/tf.strided_slice_2/StridedSlice", "op": "StridedSlice", "input": ["model_13/tf.math.multiply_33/Mul", "model_13/tf.strided_slice_2/ones_like/tensor", "model_13/tf.strided_slice_2/StridedSlice/end", "model_13/tf.strided_slice_2/ones_like"], "attr": {"shrink_axis_mask": {"i": "0"}, "new_axis_mask": {"i": "0"}, "T": {"type": "DT_FLOAT"}, "begin_mask": {"i": "15"}, "ellipsis_mask": {"i": "0"}, "Index": {"type": "DT_INT64"}, "end_mask": {"i": "7"}}}, {"name": "model_13/tf.strided_slice_3/StridedSlice", "op": "StridedSlice", "input": ["model_13/tf.math.multiply_33/Mul", "model_13/tf.strided_slice_3/ones_like/tensor", "model_13/tf.strided_slice_3/StridedSlice/end", "model_13/tf.strided_slice_3/ones_like"], "attr": {"begin_mask": {"i": "7"}, "Index": {"type": "DT_INT64"}, "new_axis_mask": {"i": "0"}, "end_mask": {"i": "7"}, "T": {"type": "DT_FLOAT"}, "ellipsis_mask": {"i": "0"}, "shrink_axis_mask": {"i": "0"}}}, {"name": "model_13/tf.math.add_10/Add", "op": "_FusedConv2D", "input": ["model_13/tf.strided_slice_3/StridedSlice", "model_13/tf.nn.convolution_8/convolution/filter", "model_13/tf.math.add_10/Add/y"], "device": "/device:CPU:0", "attr": {"num_host_args": {"i": "0"}, "use_cudnn_on_gpu": {"b": true}, "padding": {"s": "U0FNRQ=="}, "data_format": {"s": "TkhXQw=="}, "T": {"type": "DT_FLOAT"}, "dilations": {"list": {"i": ["1", "1", "1", "1"]}}, "epsilon": {"f": 0.0}, "TArgs": {"list": {"type": ["DT_FLOAT"]}}, "filter_format": {"s": "SFdJTw=="}, "num_args": {"i": "1"}, "leakyrelu_alpha": {"f": 0.2}, "explicit_paddings": {"list": {}}, "strides": {"list": {"i": ["1", "1", "1", "1"]}}, "fused_ops": {"list": {"s": ["Qmlhc0FkZA=="]}}}}, {"name": "model_13/tf.math.sigmoid_8/Sigmoid", "op": "Sigmoid", "input": ["model_13/tf.math.add_10/Add"], "attr": {"T": {"type": "DT_FLOAT"}}}, {"name": "model_13/tf.math.multiply_37/Mul", "op": "Mul", "input": ["model_13/tf.math.add_10/Add", "model_13/tf.math.sigmoid_8/Sigmoid"], "attr": {"T": {"type": "DT_FLOAT"}}}, {"name": "model_13/tf.math.add_11/Add", "op": "_FusedConv2D", "input": ["model_13/tf.math.multiply_37/Mul", "model_13/tf.nn.convolution_9/convolution/filter", "model_13/tf.math.add_11/Add/y"], "device": "/device:CPU:0", "attr": {"TArgs": {"list": {"type": ["DT_FLOAT"]}}, "strides": {"list": {"i": ["1", "1", "1", "1"]}}, "fused_ops": {"list": {"s": ["Qmlhc0FkZA=="]}}, "leakyrelu_alpha": {"f": 0.2}, "dilations": {"list": {"i": ["1", "1", "1", "1"]}}, "num_args": {"i": "1"}, "explicit_paddings": {"list": {}}, "epsilon": {"f": 0.0}, "padding": {"s": "U0FNRQ=="}, "num_host_args": {"i": "0"}, "data_format": {"s": "TkhXQw=="}, "filter_format": {"s": "SFdJTw=="}, "T": {"type": "DT_FLOAT"}, "use_cudnn_on_gpu": {"b": true}}}, {"name": "model_13/tf.math.sigmoid_9/Sigmoid", "op": "Sigmoid", "input": ["model_13/tf.math.add_11/Add"], "attr": {"T": {"type": "DT_FLOAT"}}}, {"name": "model_13/tf.math.multiply_41/Mul", "op": "Mul", "input": ["model_13/tf.math.add_11/Add", "model_13/tf.math.sigmoid_9/Sigmoid"], "attr": {"T": {"type": "DT_FLOAT"}}}, {"name": "model_13/tf.math.add_13/Add", "op": "AddV2", "input": ["model_13/tf.strided_slice_3/StridedSlice", "model_13/tf.math.multiply_41/Mul"], "attr": {"T": {"type": "DT_FLOAT"}}}, {"name": "model_13/tf.math.add_14/Add", "op": "_FusedConv2D", "input": ["model_13/tf.math.add_13/Add", "model_13/tf.nn.convolution_10/convolution/filter", "model_13/tf.math.add_14/Add/y"], "device": "/device:CPU:0", "attr": {"dilations": {"list": {"i": ["1", "1", "1", "1"]}}, "explicit_paddings": {"list": {}}, "num_host_args": {"i": "0"}, "use_cudnn_on_gpu": {"b": true}, "data_format": {"s": "TkhXQw=="}, "fused_ops": {"list": {"s": ["Qmlhc0FkZA=="]}}, "padding": {"s": "U0FNRQ=="}, "epsilon": {"f": 0.0}, "leakyrelu_alpha": {"f": 0.2}, "strides": {"list": {"i": ["1", "1", "1", "1"]}}, "filter_format": {"s": "SFdJTw=="}, "T": {"type": "DT_FLOAT"}, "TArgs": {"list": {"type": ["DT_FLOAT"]}}, "num_args": {"i": "1"}}}, {"name": "model_13/tf.math.sigmoid_10/Sigmoid", "op": "Sigmoid", "input": ["model_13/tf.math.add_14/Add"], "attr": {"T": {"type": "DT_FLOAT"}}}, {"name": "model_13/tf.math.multiply_47/Mul", "op": "Mul", "input": ["model_13/tf.math.add_14/Add", "model_13/tf.math.sigmoid_10/Sigmoid"], "attr": {"T": {"type": "DT_FLOAT"}}}, {"name": "model_13/tf.math.add_15/Add", "op": "_FusedConv2D", "input": ["model_13/tf.math.multiply_47/Mul", "model_13/tf.nn.convolution_11/convolution/filter", "model_13/tf.math.add_15/Add/y"], "device": "/device:CPU:0", "attr": {"data_format": {"s": "TkhXQw=="}, "num_args": {"i": "1"}, "TArgs": {"list": {"type": ["DT_FLOAT"]}}, "use_cudnn_on_gpu": {"b": true}, "leakyrelu_alpha": {"f": 0.2}, "filter_format": {"s": "SFdJTw=="}, "strides": {"list": {"i": ["1", "1", "1", "1"]}}, "dilations": {"list": {"i": ["1", "1", "1", "1"]}}, "epsilon": {"f": 0.0}, "T": {"type": "DT_FLOAT"}, "fused_ops": {"list": {"s": ["Qmlhc0FkZA=="]}}, "num_host_args": {"i": "0"}, "explicit_paddings": {"list": {}}, "padding": {"s": "U0FNRQ=="}}}, {"name": "model_13/tf.math.sigmoid_11/Sigmoid", "op": "Sigmoid", "input": ["model_13/tf.math.add_15/Add"], "attr": {"T": {"type": "DT_FLOAT"}}}, {"name": "model_13/tf.math.multiply_51/Mul", "op": "Mul", "input": ["model_13/tf.math.add_15/Add", "model_13/tf.math.sigmoid_11/Sigmoid"], "attr": {"T": {"type": "DT_FLOAT"}}}, {"name": "model_13/tf.math.add_17/Add", "op": "AddV2", "input": ["model_13/tf.math.add_13/Add", "model_13/tf.math.multiply_51/Mul"], "attr": {"T": {"type": "DT_FLOAT"}}}, {"name": "model_13/tf.concat_1/concat", "op": "ConcatV2", "input": ["model_13/tf.strided_slice_2/StridedSlice", "model_13/tf.strided_slice_3/StridedSlice", "model_13/tf.math.add_13/Add", "model_13/tf.math.add_17/Add", "model_13/tf.concat_1/concat/axis"], "attr": {"T": {"type": "DT_FLOAT"}, "Tidx": {"type": "DT_INT32"}, "N": {"i": "4"}}}, {"name": "model_13/tf.math.add_18/Add", "op": "_FusedConv2D", "input": ["model_13/tf.concat_1/concat", "model_13/tf.nn.convolution_12/convolution/filter", "model_13/tf.math.add_18/Add/y"], "device": "/device:CPU:0", "attr": {"fused_ops": {"list": {"s": ["Qmlhc0FkZA=="]}}, "leakyrelu_alpha": {"f": 0.2}, "num_host_args": {"i": "0"}, "explicit_paddings": {"list": {}}, "use_cudnn_on_gpu": {"b": true}, "data_format": {"s": "TkhXQw=="}, "filter_format": {"s": "SFdJTw=="}, "epsilon": {"f": 0.0}, "strides": {"list": {"i": ["1", "1", "1", "1"]}}, "num_args": {"i": "1"}, "dilations": {"list": {"i": ["1", "1", "1", "1"]}}, "T": {"type": "DT_FLOAT"}, "TArgs": {"list": {"type": ["DT_FLOAT"]}}, "padding": {"s": "U0FNRQ=="}}}, {"name": "model_13/tf.math.sigmoid_12/Sigmoid", "op": "Sigmoid", "input": ["model_13/tf.math.add_18/Add"], "attr": {"T": {"type": "DT_FLOAT"}}}, {"name": "model_13/tf.math.multiply_57/Mul", "op": "Mul", "input": ["model_13/tf.math.add_18/Add", "model_13/tf.math.sigmoid_12/Sigmoid"], "attr": {"T": {"type": "DT_FLOAT"}}}, {"name": "model_13/tf.compat.v1.pad_3/Pad", "op": "Pad", "input": ["model_13/tf.math.multiply_57/Mul", "model_13/tf.compat.v1.pad_3/Pad/paddings"], "attr": {"Tpaddings": {"type": "DT_INT32"}, "T": {"type": "DT_FLOAT"}}}, {"name": "model_13/tf.math.add_19/Add", "op": "_FusedConv2D", "input": ["model_13/tf.compat.v1.pad_3/Pad", "model_13/tf.nn.convolution_13/convolution/filter", "model_13/tf.math.add_19/Add/y"], "device": "/device:CPU:0", "attr": {"epsilon": {"f": 0.0}, "use_cudnn_on_gpu": {"b": true}, "num_args": {"i": "1"}, "TArgs": {"list": {"type": ["DT_FLOAT"]}}, "filter_format": {"s": "SFdJTw=="}, "explicit_paddings": {"list": {}}, "padding": {"s": "VkFMSUQ="}, "fused_ops": {"list": {"s": ["Qmlhc0FkZA=="]}}, "num_host_args": {"i": "0"}, "T": {"type": "DT_FLOAT"}, "leakyrelu_alpha": {"f": 0.2}, "data_format": {"s": "TkhXQw=="}, "strides": {"list": {"i": ["1", "2", "2", "1"]}}, "dilations": {"list": {"i": ["1", "1", "1", "1"]}}}}, {"name": "model_13/tf.math.sigmoid_13/Sigmoid", "op": "Sigmoid", "input": ["model_13/tf.math.add_19/Add"], "attr": {"T": {"type": "DT_FLOAT"}}}, {"name": "model_13/tf.math.multiply_61/Mul", "op": "Mul", "input": ["model_13/tf.math.add_19/Add", "model_13/tf.math.sigmoid_13/Sigmoid"], "attr": {"T": {"type": "DT_FLOAT"}}}, {"name": "model_13/tf.math.add_20/Add", "op": "_FusedConv2D", "input": ["model_13/tf.math.multiply_61/Mul", "model_13/tf.nn.convolution_14/convolution/filter", "model_13/tf.math.add_20/Add/y"], "device": "/device:CPU:0", "attr": {"epsilon": {"f": 0.0}, "leakyrelu_alpha": {"f": 0.2}, "filter_format": {"s": "SFdJTw=="}, "num_host_args": {"i": "0"}, "fused_ops": {"list": {"s": ["Qmlhc0FkZA=="]}}, "TArgs": {"list": {"type": ["DT_FLOAT"]}}, "T": {"type": "DT_FLOAT"}, "strides": {"list": {"i": ["1", "1", "1", "1"]}}, "explicit_paddings": {"list": {}}, "dilations": {"list": {"i": ["1", "1", "1", "1"]}}, "data_format": {"s": "TkhXQw=="}, "padding": {"s": "U0FNRQ=="}, "num_args": {"i": "1"}, "use_cudnn_on_gpu": {"b": true}}}, {"name": "model_13/tf.math.sigmoid_14/Sigmoid", "op": "Sigmoid", "input": ["model_13/tf.math.add_20/Add"], "attr": {"T": {"type": "DT_FLOAT"}}}, {"name": "model_13/tf.math.multiply_65/Mul", "op": "Mul", "input": ["model_13/tf.math.add_20/Add", "model_13/tf.math.sigmoid_14/Sigmoid"], "attr": {"T": {"type": "DT_FLOAT"}}}, {"name": "model_13/tf.strided_slice_4/StridedSlice", "op": "StridedSlice", "input": ["model_13/tf.math.multiply_65/Mul", "model_13/tf.strided_slice_4/ones_like/tensor", "model_13/tf.strided_slice_4/StridedSlice/end", "model_13/tf.strided_slice_4/ones_like"], "attr": {"begin_mask": {"i": "15"}, "T": {"type": "DT_FLOAT"}, "end_mask": {"i": "7"}, "new_axis_mask": {"i": "0"}, "shrink_axis_mask": {"i": "0"}, "Index": {"type": "DT_INT64"}, "ellipsis_mask": {"i": "0"}}}, {"name": "model_13/tf.strided_slice_5/StridedSlice", "op": "StridedSlice", "input": ["model_13/tf.math.multiply_65/Mul", "model_13/tf.strided_slice_5/ones_like/tensor", "model_13/tf.strided_slice_5/StridedSlice/end", "model_13/tf.strided_slice_5/ones_like"], "attr": {"ellipsis_mask": {"i": "0"}, "begin_mask": {"i": "7"}, "Index": {"type": "DT_INT64"}, "T": {"type": "DT_FLOAT"}, "end_mask": {"i": "7"}, "new_axis_mask": {"i": "0"}, "shrink_axis_mask": {"i": "0"}}}, {"name": "model_13/tf.math.add_21/Add", "op": "_FusedConv2D", "input": ["model_13/tf.strided_slice_5/StridedSlice", "model_13/tf.nn.convolution_15/convolution/filter", "model_13/tf.math.add_21/Add/y"], "device": "/device:CPU:0", "attr": {"dilations": {"list": {"i": ["1", "1", "1", "1"]}}, "filter_format": {"s": "SFdJTw=="}, "num_args": {"i": "1"}, "padding": {"s": "U0FNRQ=="}, "epsilon": {"f": 0.0}, "T": {"type": "DT_FLOAT"}, "data_format": {"s": "TkhXQw=="}, "leakyrelu_alpha": {"f": 0.2}, "strides": {"list": {"i": ["1", "1", "1", "1"]}}, "TArgs": {"list": {"type": ["DT_FLOAT"]}}, "fused_ops": {"list": {"s": ["Qmlhc0FkZA=="]}}, "explicit_paddings": {"list": {}}, "use_cudnn_on_gpu": {"b": true}, "num_host_args": {"i": "0"}}}, {"name": "model_13/tf.math.sigmoid_15/Sigmoid", "op": "Sigmoid", "input": ["model_13/tf.math.add_21/Add"], "attr": {"T": {"type": "DT_FLOAT"}}}, {"name": "model_13/tf.math.multiply_69/Mul", "op": "Mul", "input": ["model_13/tf.math.add_21/Add", "model_13/tf.math.sigmoid_15/Sigmoid"], "attr": {"T": {"type": "DT_FLOAT"}}}, {"name": "model_13/tf.math.add_22/Add", "op": "_FusedConv2D", "input": ["model_13/tf.math.multiply_69/Mul", "model_13/tf.nn.convolution_16/convolution/filter", "model_13/tf.math.add_22/Add/y"], "device": "/device:CPU:0", "attr": {"leakyrelu_alpha": {"f": 0.2}, "padding": {"s": "U0FNRQ=="}, "fused_ops": {"list": {"s": ["Qmlhc0FkZA=="]}}, "use_cudnn_on_gpu": {"b": true}, "dilations": {"list": {"i": ["1", "1", "1", "1"]}}, "explicit_paddings": {"list": {}}, "T": {"type": "DT_FLOAT"}, "num_host_args": {"i": "0"}, "data_format": {"s": "TkhXQw=="}, "filter_format": {"s": "SFdJTw=="}, "num_args": {"i": "1"}, "epsilon": {"f": 0.0}, "strides": {"list": {"i": ["1", "1", "1", "1"]}}, "TArgs": {"list": {"type": ["DT_FLOAT"]}}}}, {"name": "model_13/tf.math.sigmoid_16/Sigmoid", "op": "Sigmoid", "input": ["model_13/tf.math.add_22/Add"], "attr": {"T": {"type": "DT_FLOAT"}}}, {"name": "model_13/tf.math.multiply_73/Mul", "op": "Mul", "input": ["model_13/tf.math.add_22/Add", "model_13/tf.math.sigmoid_16/Sigmoid"], "attr": {"T": {"type": "DT_FLOAT"}}}, {"name": "model_13/tf.math.add_24/Add", "op": "AddV2", "input": ["model_13/tf.strided_slice_5/StridedSlice", "model_13/tf.math.multiply_73/Mul"], "attr": {"T": {"type": "DT_FLOAT"}}}, {"name": "model_13/tf.math.add_25/Add", "op": "_FusedConv2D", "input": ["model_13/tf.math.add_24/Add", "model_13/tf.nn.convolution_17/convolution/filter", "model_13/tf.math.add_25/Add/y"], "device": "/device:CPU:0", "attr": {"use_cudnn_on_gpu": {"b": true}, "fused_ops": {"list": {"s": ["Qmlhc0FkZA=="]}}, "explicit_paddings": {"list": {}}, "num_host_args": {"i": "0"}, "TArgs": {"list": {"type": ["DT_FLOAT"]}}, "leakyrelu_alpha": {"f": 0.2}, "dilations": {"list": {"i": ["1", "1", "1", "1"]}}, "epsilon": {"f": 0.0}, "filter_format": {"s": "SFdJTw=="}, "padding": {"s": "U0FNRQ=="}, "num_args": {"i": "1"}, "T": {"type": "DT_FLOAT"}, "strides": {"list": {"i": ["1", "1", "1", "1"]}}, "data_format": {"s": "TkhXQw=="}}}, {"name": "model_13/tf.math.sigmoid_17/Sigmoid", "op": "Sigmoid", "input": ["model_13/tf.math.add_25/Add"], "attr": {"T": {"type": "DT_FLOAT"}}}, {"name": "model_13/tf.math.multiply_79/Mul", "op": "Mul", "input": ["model_13/tf.math.add_25/Add", "model_13/tf.math.sigmoid_17/Sigmoid"], "attr": {"T": {"type": "DT_FLOAT"}}}, {"name": "model_13/tf.math.add_26/Add", "op": "_FusedConv2D", "input": ["model_13/tf.math.multiply_79/Mul", "model_13/tf.nn.convolution_18/convolution/filter", "model_13/tf.math.add_26/Add/y"], "device": "/device:CPU:0", "attr": {"strides": {"list": {"i": ["1", "1", "1", "1"]}}, "TArgs": {"list": {"type": ["DT_FLOAT"]}}, "dilations": {"list": {"i": ["1", "1", "1", "1"]}}, "T": {"type": "DT_FLOAT"}, "num_args": {"i": "1"}, "explicit_paddings": {"list": {}}, "fused_ops": {"list": {"s": ["Qmlhc0FkZA=="]}}, "leakyrelu_alpha": {"f": 0.2}, "padding": {"s": "U0FNRQ=="}, "epsilon": {"f": 0.0}, "num_host_args": {"i": "0"}, "data_format": {"s": "TkhXQw=="}, "use_cudnn_on_gpu": {"b": true}, "filter_format": {"s": "SFdJTw=="}}}, {"name": "model_13/tf.math.sigmoid_18/Sigmoid", "op": "Sigmoid", "input": ["model_13/tf.math.add_26/Add"], "attr": {"T": {"type": "DT_FLOAT"}}}, {"name": "model_13/tf.math.multiply_83/Mul", "op": "Mul", "input": ["model_13/tf.math.add_26/Add", "model_13/tf.math.sigmoid_18/Sigmoid"], "attr": {"T": {"type": "DT_FLOAT"}}}, {"name": "model_13/tf.math.add_28/Add", "op": "AddV2", "input": ["model_13/tf.math.add_24/Add", "model_13/tf.math.multiply_83/Mul"], "attr": {"T": {"type": "DT_FLOAT"}}}, {"name": "model_13/tf.concat_2/concat", "op": "ConcatV2", "input": ["model_13/tf.strided_slice_4/StridedSlice", "model_13/tf.strided_slice_5/StridedSlice", "model_13/tf.math.add_24/Add", "model_13/tf.math.add_28/Add", "model_13/tf.concat_2/concat/axis"], "attr": {"T": {"type": "DT_FLOAT"}, "N": {"i": "4"}, "Tidx": {"type": "DT_INT32"}}}, {"name": "model_13/tf.math.add_29/Add", "op": "_FusedConv2D", "input": ["model_13/tf.concat_2/concat", "model_13/tf.nn.convolution_19/convolution/filter", "model_13/tf.math.add_29/Add/y"], "device": "/device:CPU:0", "attr": {"dilations": {"list": {"i": ["1", "1", "1", "1"]}}, "num_args": {"i": "1"}, "padding": {"s": "U0FNRQ=="}, "explicit_paddings": {"list": {}}, "T": {"type": "DT_FLOAT"}, "num_host_args": {"i": "0"}, "TArgs": {"list": {"type": ["DT_FLOAT"]}}, "fused_ops": {"list": {"s": ["Qmlhc0FkZA=="]}}, "data_format": {"s": "TkhXQw=="}, "leakyrelu_alpha": {"f": 0.2}, "epsilon": {"f": 0.0}, "strides": {"list": {"i": ["1", "1", "1", "1"]}}, "filter_format": {"s": "SFdJTw=="}, "use_cudnn_on_gpu": {"b": true}}}, {"name": "model_13/tf.math.sigmoid_19/Sigmoid", "op": "Sigmoid", "input": ["model_13/tf.math.add_29/Add"], "attr": {"T": {"type": "DT_FLOAT"}}}, {"name": "model_13/tf.math.multiply_89/Mul", "op": "Mul", "input": ["model_13/tf.math.add_29/Add", "model_13/tf.math.sigmoid_19/Sigmoid"], "attr": {"T": {"type": "DT_FLOAT"}}}, {"name": "model_13/tf.compat.v1.pad_4/Pad", "op": "Pad", "input": ["model_13/tf.math.multiply_89/Mul", "model_13/tf.compat.v1.pad_4/Pad/paddings"], "attr": {"T": {"type": "DT_FLOAT"}, "Tpaddings": {"type": "DT_INT32"}}}, {"name": "model_13/tf.math.add_30/Add", "op": "_FusedConv2D", "input": ["model_13/tf.compat.v1.pad_4/Pad", "model_13/tf.nn.convolution_20/convolution/filter", "model_13/tf.math.add_30/Add/y"], "device": "/device:CPU:0", "attr": {"dilations": {"list": {"i": ["1", "1", "1", "1"]}}, "leakyrelu_alpha": {"f": 0.2}, "num_args": {"i": "1"}, "padding": {"s": "VkFMSUQ="}, "filter_format": {"s": "SFdJTw=="}, "T": {"type": "DT_FLOAT"}, "strides": {"list": {"i": ["1", "2", "2", "1"]}}, "explicit_paddings": {"list": {}}, "data_format": {"s": "TkhXQw=="}, "fused_ops": {"list": {"s": ["Qmlhc0FkZA=="]}}, "TArgs": {"list": {"type": ["DT_FLOAT"]}}, "epsilon": {"f": 0.0}, "num_host_args": {"i": "0"}, "use_cudnn_on_gpu": {"b": true}}}, {"name": "model_13/tf.math.sigmoid_20/Sigmoid", "op": "Sigmoid", "input": ["model_13/tf.math.add_30/Add"], "attr": {"T": {"type": "DT_FLOAT"}}}, {"name": "model_13/tf.math.multiply_93/Mul", "op": "Mul", "input": ["model_13/tf.math.add_30/Add", "model_13/tf.math.sigmoid_20/Sigmoid"], "attr": {"T": {"type": "DT_FLOAT"}}}, {"name": "model_13/tf.math.add_31/Add", "op": "_FusedConv2D", "input": ["model_13/tf.math.multiply_93/Mul", "model_13/tf.nn.convolution_21/convolution/filter", "model_13/tf.math.add_31/Add/y"], "device": "/device:CPU:0", "attr": {"fused_ops": {"list": {"s": ["Qmlhc0FkZA=="]}}, "data_format": {"s": "TkhXQw=="}, "use_cudnn_on_gpu": {"b": true}, "epsilon": {"f": 0.0}, "padding": {"s": "U0FNRQ=="}, "strides": {"list": {"i": ["1", "1", "1", "1"]}}, "leakyrelu_alpha": {"f": 0.2}, "explicit_paddings": {"list": {}}, "num_args": {"i": "1"}, "TArgs": {"list": {"type": ["DT_FLOAT"]}}, "T": {"type": "DT_FLOAT"}, "dilations": {"list": {"i": ["1", "1", "1", "1"]}}, "num_host_args": {"i": "0"}, "filter_format": {"s": "SFdJTw=="}}}, {"name": "model_13/tf.math.sigmoid_21/Sigmoid", "op": "Sigmoid", "input": ["model_13/tf.math.add_31/Add"], "attr": {"T": {"type": "DT_FLOAT"}}}, {"name": "model_13/tf.math.multiply_97/Mul", "op": "Mul", "input": ["model_13/tf.math.add_31/Add", "model_13/tf.math.sigmoid_21/Sigmoid"], "attr": {"T": {"type": "DT_FLOAT"}}}, {"name": "model_13/tf.strided_slice_6/StridedSlice", "op": "StridedSlice", "input": ["model_13/tf.math.multiply_97/Mul", "model_13/tf.strided_slice_6/ones_like/tensor", "model_13/tf.strided_slice_6/StridedSlice/end", "model_13/tf.strided_slice_6/ones_like"], "attr": {"shrink_axis_mask": {"i": "0"}, "begin_mask": {"i": "15"}, "ellipsis_mask": {"i": "0"}, "T": {"type": "DT_FLOAT"}, "Index": {"type": "DT_INT64"}, "end_mask": {"i": "7"}, "new_axis_mask": {"i": "0"}}}, {"name": "model_13/tf.strided_slice_7/StridedSlice", "op": "StridedSlice", "input": ["model_13/tf.math.multiply_97/Mul", "model_13/tf.strided_slice_7/ones_like/tensor", "model_13/tf.strided_slice_7/StridedSlice/end", "model_13/tf.strided_slice_7/ones_like"], "attr": {"shrink_axis_mask": {"i": "0"}, "ellipsis_mask": {"i": "0"}, "begin_mask": {"i": "7"}, "Index": {"type": "DT_INT64"}, "T": {"type": "DT_FLOAT"}, "end_mask": {"i": "7"}, "new_axis_mask": {"i": "0"}}}, {"name": "model_13/tf.math.add_32/Add", "op": "_FusedConv2D", "input": ["model_13/tf.strided_slice_7/StridedSlice", "model_13/tf.nn.convolution_22/convolution/filter", "model_13/tf.math.add_32/Add/y"], "device": "/device:CPU:0", "attr": {"leakyrelu_alpha": {"f": 0.2}, "num_args": {"i": "1"}, "epsilon": {"f": 0.0}, "filter_format": {"s": "SFdJTw=="}, "T": {"type": "DT_FLOAT"}, "padding": {"s": "U0FNRQ=="}, "dilations": {"list": {"i": ["1", "1", "1", "1"]}}, "num_host_args": {"i": "0"}, "explicit_paddings": {"list": {}}, "use_cudnn_on_gpu": {"b": true}, "data_format": {"s": "TkhXQw=="}, "fused_ops": {"list": {"s": ["Qmlhc0FkZA=="]}}, "TArgs": {"list": {"type": ["DT_FLOAT"]}}, "strides": {"list": {"i": ["1", "1", "1", "1"]}}}}, {"name": "model_13/tf.math.sigmoid_22/Sigmoid", "op": "Sigmoid", "input": ["model_13/tf.math.add_32/Add"], "attr": {"T": {"type": "DT_FLOAT"}}}, {"name": "model_13/tf.math.multiply_101/Mul", "op": "Mul", "input": ["model_13/tf.math.add_32/Add", "model_13/tf.math.sigmoid_22/Sigmoid"], "attr": {"T": {"type": "DT_FLOAT"}}}, {"name": "model_13/tf.math.add_33/Add", "op": "_FusedConv2D", "input": ["model_13/tf.math.multiply_101/Mul", "model_13/tf.nn.convolution_23/convolution/filter", "model_13/tf.math.add_33/Add/y"], "device": "/device:CPU:0", "attr": {"epsilon": {"f": 0.0}, "T": {"type": "DT_FLOAT"}, "leakyrelu_alpha": {"f": 0.2}, "padding": {"s": "U0FNRQ=="}, "fused_ops": {"list": {"s": ["Qmlhc0FkZA=="]}}, "explicit_paddings": {"list": {}}, "TArgs": {"list": {"type": ["DT_FLOAT"]}}, "dilations": {"list": {"i": ["1", "1", "1", "1"]}}, "num_host_args": {"i": "0"}, "strides": {"list": {"i": ["1", "1", "1", "1"]}}, "use_cudnn_on_gpu": {"b": true}, "filter_format": {"s": "SFdJTw=="}, "data_format": {"s": "TkhXQw=="}, "num_args": {"i": "1"}}}, {"name": "model_13/tf.math.sigmoid_23/Sigmoid", "op": "Sigmoid", "input": ["model_13/tf.math.add_33/Add"], "attr": {"T": {"type": "DT_FLOAT"}}}, {"name": "model_13/tf.math.multiply_105/Mul", "op": "Mul", "input": ["model_13/tf.math.add_33/Add", "model_13/tf.math.sigmoid_23/Sigmoid"], "attr": {"T": {"type": "DT_FLOAT"}}}, {"name": "model_13/tf.math.add_35/Add", "op": "AddV2", "input": ["model_13/tf.strided_slice_7/StridedSlice", "model_13/tf.math.multiply_105/Mul"], "attr": {"T": {"type": "DT_FLOAT"}}}, {"name": "model_13/tf.concat_3/concat", "op": "ConcatV2", "input": ["model_13/tf.strided_slice_6/StridedSlice", "model_13/tf.strided_slice_7/StridedSlice", "model_13/tf.math.add_35/Add", "model_13/tf.concat_3/concat/axis"], "attr": {"Tidx": {"type": "DT_INT32"}, "T": {"type": "DT_FLOAT"}, "N": {"i": "3"}}}, {"name": "model_13/tf.math.add_36/Add", "op": "_FusedConv2D", "input": ["model_13/tf.concat_3/concat", "model_13/tf.nn.convolution_24/convolution/filter", "model_13/tf.math.add_36/Add/y"], "device": "/device:CPU:0", "attr": {"padding": {"s": "U0FNRQ=="}, "dilations": {"list": {"i": ["1", "1", "1", "1"]}}, "epsilon": {"f": 0.0}, "leakyrelu_alpha": {"f": 0.2}, "filter_format": {"s": "SFdJTw=="}, "fused_ops": {"list": {"s": ["Qmlhc0FkZA=="]}}, "TArgs": {"list": {"type": ["DT_FLOAT"]}}, "num_host_args": {"i": "0"}, "data_format": {"s": "TkhXQw=="}, "strides": {"list": {"i": ["1", "1", "1", "1"]}}, "T": {"type": "DT_FLOAT"}, "use_cudnn_on_gpu": {"b": true}, "explicit_paddings": {"list": {}}, "num_args": {"i": "1"}}}, {"name": "model_13/tf.math.sigmoid_24/Sigmoid", "op": "Sigmoid", "input": ["model_13/tf.math.add_36/Add"], "attr": {"T": {"type": "DT_FLOAT"}}}, {"name": "model_13/tf.math.multiply_111/Mul", "op": "Mul", "input": ["model_13/tf.math.add_36/Add", "model_13/tf.math.sigmoid_24/Sigmoid"], "attr": {"T": {"type": "DT_FLOAT"}}}, {"name": "model_13/tf.math.add_37/Add", "op": "_FusedConv2D", "input": ["model_13/tf.math.multiply_111/Mul", "model_13/tf.nn.convolution_25/convolution/filter", "model_13/tf.math.add_37/Add/y"], "device": "/device:CPU:0", "attr": {"fused_ops": {"list": {"s": ["Qmlhc0FkZA=="]}}, "padding": {"s": "U0FNRQ=="}, "num_host_args": {"i": "0"}, "dilations": {"list": {"i": ["1", "1", "1", "1"]}}, "num_args": {"i": "1"}, "epsilon": {"f": 0.0}, "explicit_paddings": {"list": {}}, "TArgs": {"list": {"type": ["DT_FLOAT"]}}, "filter_format": {"s": "SFdJTw=="}, "strides": {"list": {"i": ["1", "1", "1", "1"]}}, "T": {"type": "DT_FLOAT"}, "use_cudnn_on_gpu": {"b": true}, "leakyrelu_alpha": {"f": 0.2}, "data_format": {"s": "TkhXQw=="}}}, {"name": "model_13/tf.math.sigmoid_25/Sigmoid", "op": "Sigmoid", "input": ["model_13/tf.math.add_37/Add"], "attr": {"T": {"type": "DT_FLOAT"}}}, {"name": "model_13/tf.math.multiply_115/Mul", "op": "Mul", "input": ["model_13/tf.math.add_37/Add", "model_13/tf.math.sigmoid_25/Sigmoid"], "attr": {"T": {"type": "DT_FLOAT"}}}, {"name": "model_13/tf.compat.v1.nn.pool/max_pool", "op": "MaxPool", "input": ["model_13/tf.math.multiply_115/Mul"], "attr": {"T": {"type": "DT_FLOAT"}, "data_format": {"s": "TkhXQw=="}, "padding": {"s": "U0FNRQ=="}, "strides": {"list": {"i": ["1", "1", "1", "1"]}}, "explicit_paddings": {"list": {}}, "ksize": {"list": {"i": ["1", "5", "5", "1"]}}}}, {"name": "model_13/tf.compat.v1.nn.pool_1/max_pool", "op": "MaxPool", "input": ["model_13/tf.compat.v1.nn.pool/max_pool"], "attr": {"T": {"type": "DT_FLOAT"}, "explicit_paddings": {"list": {}}, "padding": {"s": "U0FNRQ=="}, "ksize": {"list": {"i": ["1", "5", "5", "1"]}}, "data_format": {"s": "TkhXQw=="}, "strides": {"list": {"i": ["1", "1", "1", "1"]}}}}, {"name": "model_13/tf.compat.v1.nn.pool_2/max_pool", "op": "MaxPool", "input": ["model_13/tf.compat.v1.nn.pool_1/max_pool"], "attr": {"ksize": {"list": {"i": ["1", "5", "5", "1"]}}, "data_format": {"s": "TkhXQw=="}, "T": {"type": "DT_FLOAT"}, "padding": {"s": "U0FNRQ=="}, "explicit_paddings": {"list": {}}, "strides": {"list": {"i": ["1", "1", "1", "1"]}}}}, {"name": "model_13/tf.concat_4/concat", "op": "ConcatV2", "input": ["model_13/tf.math.multiply_115/Mul", "model_13/tf.compat.v1.nn.pool/max_pool", "model_13/tf.compat.v1.nn.pool_1/max_pool", "model_13/tf.compat.v1.nn.pool_2/max_pool", "model_13/tf.concat_4/concat/axis"], "attr": {"T": {"type": "DT_FLOAT"}, "Tidx": {"type": "DT_INT32"}, "N": {"i": "4"}}}, {"name": "model_13/tf.math.add_38/Add", "op": "_FusedConv2D", "input": ["model_13/tf.concat_4/concat", "model_13/tf.nn.convolution_26/convolution/filter", "model_13/tf.math.add_38/Add/y"], "device": "/device:CPU:0", "attr": {"explicit_paddings": {"list": {}}, "padding": {"s": "U0FNRQ=="}, "dilations": {"list": {"i": ["1", "1", "1", "1"]}}, "T": {"type": "DT_FLOAT"}, "filter_format": {"s": "SFdJTw=="}, "fused_ops": {"list": {"s": ["Qmlhc0FkZA=="]}}, "num_host_args": {"i": "0"}, "strides": {"list": {"i": ["1", "1", "1", "1"]}}, "leakyrelu_alpha": {"f": 0.2}, "TArgs": {"list": {"type": ["DT_FLOAT"]}}, "use_cudnn_on_gpu": {"b": true}, "epsilon": {"f": 0.0}, "num_args": {"i": "1"}, "data_format": {"s": "TkhXQw=="}}}, {"name": "model_13/tf.math.sigmoid_26/Sigmoid", "op": "Sigmoid", "input": ["model_13/tf.math.add_38/Add"], "attr": {"T": {"type": "DT_FLOAT"}}}, {"name": "model_13/tf.math.multiply_119/Mul", "op": "Mul", "input": ["model_13/tf.math.add_38/Add", "model_13/tf.math.sigmoid_26/Sigmoid"], "attr": {"T": {"type": "DT_FLOAT"}}}, {"name": "model_13/tf.image.resize/resize/ResizeNearestNeighbor", "op": "ResizeNearestNeighbor", "input": ["model_13/tf.math.multiply_119/Mul", "model_13/tf.image.resize/resize/size"], "attr": {"align_corners": {"b": false}, "half_pixel_centers": {"b": true}, "T": {"type": "DT_FLOAT"}}}, {"name": "model_13/tf.concat_5/concat", "op": "ConcatV2", "input": ["model_13/tf.image.resize/resize/ResizeNearestNeighbor", "model_13/tf.math.multiply_89/Mul", "model_13/tf.concat_5/concat/axis"], "attr": {"Tidx": {"type": "DT_INT32"}, "T": {"type": "DT_FLOAT"}, "N": {"i": "2"}}}, {"name": "model_13/tf.math.add_39/Add", "op": "_FusedConv2D", "input": ["model_13/tf.concat_5/concat", "model_13/tf.nn.convolution_27/convolution/filter", "model_13/tf.math.add_39/Add/y"], "device": "/device:CPU:0", "attr": {"num_host_args": {"i": "0"}, "num_args": {"i": "1"}, "filter_format": {"s": "SFdJTw=="}, "TArgs": {"list": {"type": ["DT_FLOAT"]}}, "strides": {"list": {"i": ["1", "1", "1", "1"]}}, "padding": {"s": "U0FNRQ=="}, "data_format": {"s": "TkhXQw=="}, "explicit_paddings": {"list": {}}, "fused_ops": {"list": {"s": ["Qmlhc0FkZA=="]}}, "dilations": {"list": {"i": ["1", "1", "1", "1"]}}, "T": {"type": "DT_FLOAT"}, "epsilon": {"f": 0.0}, "leakyrelu_alpha": {"f": 0.2}, "use_cudnn_on_gpu": {"b": true}}}, {"name": "model_13/tf.math.sigmoid_27/Sigmoid", "op": "Sigmoid", "input": ["model_13/tf.math.add_39/Add"], "attr": {"T": {"type": "DT_FLOAT"}}}, {"name": "model_13/tf.math.multiply_123/Mul", "op": "Mul", "input": ["model_13/tf.math.add_39/Add", "model_13/tf.math.sigmoid_27/Sigmoid"], "attr": {"T": {"type": "DT_FLOAT"}}}, {"name": "model_13/tf.strided_slice_8/StridedSlice", "op": "StridedSlice", "input": ["model_13/tf.math.multiply_123/Mul", "model_13/tf.strided_slice_8/ones_like/tensor", "model_13/tf.strided_slice_8/StridedSlice/end", "model_13/tf.strided_slice_8/ones_like"], "attr": {"new_axis_mask": {"i": "0"}, "begin_mask": {"i": "15"}, "Index": {"type": "DT_INT64"}, "end_mask": {"i": "7"}, "shrink_axis_mask": {"i": "0"}, "ellipsis_mask": {"i": "0"}, "T": {"type": "DT_FLOAT"}}}, {"name": "model_13/tf.strided_slice_9/StridedSlice", "op": "StridedSlice", "input": ["model_13/tf.math.multiply_123/Mul", "model_13/tf.strided_slice_9/ones_like/tensor", "model_13/tf.strided_slice_9/StridedSlice/end", "model_13/tf.strided_slice_9/ones_like"], "attr": {"shrink_axis_mask": {"i": "0"}, "end_mask": {"i": "7"}, "ellipsis_mask": {"i": "0"}, "Index": {"type": "DT_INT64"}, "begin_mask": {"i": "7"}, "new_axis_mask": {"i": "0"}, "T": {"type": "DT_FLOAT"}}}, {"name": "model_13/tf.math.add_40/Add", "op": "_FusedConv2D", "input": ["model_13/tf.strided_slice_9/StridedSlice", "model_13/tf.nn.convolution_28/convolution/filter", "model_13/tf.math.add_40/Add/y"], "device": "/device:CPU:0", "attr": {"dilations": {"list": {"i": ["1", "1", "1", "1"]}}, "T": {"type": "DT_FLOAT"}, "num_args": {"i": "1"}, "num_host_args": {"i": "0"}, "epsilon": {"f": 0.0}, "leakyrelu_alpha": {"f": 0.2}, "explicit_paddings": {"list": {}}, "padding": {"s": "U0FNRQ=="}, "TArgs": {"list": {"type": ["DT_FLOAT"]}}, "filter_format": {"s": "SFdJTw=="}, "strides": {"list": {"i": ["1", "1", "1", "1"]}}, "use_cudnn_on_gpu": {"b": true}, "fused_ops": {"list": {"s": ["Qmlhc0FkZA=="]}}, "data_format": {"s": "TkhXQw=="}}}, {"name": "model_13/tf.math.sigmoid_28/Sigmoid", "op": "Sigmoid", "input": ["model_13/tf.math.add_40/Add"], "attr": {"T": {"type": "DT_FLOAT"}}}, {"name": "model_13/tf.math.multiply_127/Mul", "op": "Mul", "input": ["model_13/tf.math.add_40/Add", "model_13/tf.math.sigmoid_28/Sigmoid"], "attr": {"T": {"type": "DT_FLOAT"}}}, {"name": "model_13/tf.math.add_41/Add", "op": "_FusedConv2D", "input": ["model_13/tf.math.multiply_127/Mul", "model_13/tf.nn.convolution_29/convolution/filter", "model_13/tf.math.add_41/Add/y"], "device": "/device:CPU:0", "attr": {"data_format": {"s": "TkhXQw=="}, "fused_ops": {"list": {"s": ["Qmlhc0FkZA=="]}}, "TArgs": {"list": {"type": ["DT_FLOAT"]}}, "num_args": {"i": "1"}, "strides": {"list": {"i": ["1", "1", "1", "1"]}}, "use_cudnn_on_gpu": {"b": true}, "filter_format": {"s": "SFdJTw=="}, "explicit_paddings": {"list": {}}, "num_host_args": {"i": "0"}, "T": {"type": "DT_FLOAT"}, "epsilon": {"f": 0.0}, "padding": {"s": "U0FNRQ=="}, "dilations": {"list": {"i": ["1", "1", "1", "1"]}}, "leakyrelu_alpha": {"f": 0.2}}}, {"name": "model_13/tf.math.sigmoid_29/Sigmoid", "op": "Sigmoid", "input": ["model_13/tf.math.add_41/Add"], "attr": {"T": {"type": "DT_FLOAT"}}}, {"name": "model_13/tf.math.multiply_131/Mul", "op": "Mul", "input": ["model_13/tf.math.add_41/Add", "model_13/tf.math.sigmoid_29/Sigmoid"], "attr": {"T": {"type": "DT_FLOAT"}}}, {"name": "model_13/tf.concat_6/concat", "op": "ConcatV2", "input": ["model_13/tf.strided_slice_8/StridedSlice", "model_13/tf.strided_slice_9/StridedSlice", "model_13/tf.math.multiply_131/Mul", "model_13/tf.concat_6/concat/axis"], "attr": {"T": {"type": "DT_FLOAT"}, "N": {"i": "3"}, "Tidx": {"type": "DT_INT32"}}}, {"name": "model_13/tf.math.add_42/Add", "op": "_FusedConv2D", "input": ["model_13/tf.concat_6/concat", "model_13/tf.nn.convolution_30/convolution/filter", "model_13/tf.math.add_42/Add/y"], "device": "/device:CPU:0", "attr": {"epsilon": {"f": 0.0}, "use_cudnn_on_gpu": {"b": true}, "num_host_args": {"i": "0"}, "filter_format": {"s": "SFdJTw=="}, "data_format": {"s": "TkhXQw=="}, "TArgs": {"list": {"type": ["DT_FLOAT"]}}, "strides": {"list": {"i": ["1", "1", "1", "1"]}}, "num_args": {"i": "1"}, "T": {"type": "DT_FLOAT"}, "padding": {"s": "U0FNRQ=="}, "dilations": {"list": {"i": ["1", "1", "1", "1"]}}, "fused_ops": {"list": {"s": ["Qmlhc0FkZA=="]}}, "leakyrelu_alpha": {"f": 0.2}, "explicit_paddings": {"list": {}}}}, {"name": "model_13/tf.math.sigmoid_30/Sigmoid", "op": "Sigmoid", "input": ["model_13/tf.math.add_42/Add"], "attr": {"T": {"type": "DT_FLOAT"}}}, {"name": "model_13/tf.math.multiply_135/Mul", "op": "Mul", "input": ["model_13/tf.math.add_42/Add", "model_13/tf.math.sigmoid_30/Sigmoid"], "attr": {"T": {"type": "DT_FLOAT"}}}, {"name": "model_13/tf.image.resize_1/resize/ResizeNearestNeighbor", "op": "ResizeNearestNeighbor", "input": ["model_13/tf.math.multiply_135/Mul", "model_13/tf.image.resize_1/resize/size"], "attr": {"align_corners": {"b": false}, "half_pixel_centers": {"b": true}, "T": {"type": "DT_FLOAT"}}}, {"name": "model_13/tf.concat_7/concat", "op": "ConcatV2", "input": ["model_13/tf.image.resize_1/resize/ResizeNearestNeighbor", "model_13/tf.math.multiply_57/Mul", "model_13/tf.concat_7/concat/axis"], "attr": {"T": {"type": "DT_FLOAT"}, "N": {"i": "2"}, "Tidx": {"type": "DT_INT32"}}}, {"name": "model_13/tf.math.add_43/Add", "op": "_FusedConv2D", "input": ["model_13/tf.concat_7/concat", "model_13/tf.nn.convolution_31/convolution/filter", "model_13/tf.math.add_43/Add/y"], "device": "/device:CPU:0", "attr": {"TArgs": {"list": {"type": ["DT_FLOAT"]}}, "strides": {"list": {"i": ["1", "1", "1", "1"]}}, "dilations": {"list": {"i": ["1", "1", "1", "1"]}}, "use_cudnn_on_gpu": {"b": true}, "epsilon": {"f": 0.0}, "explicit_paddings": {"list": {}}, "num_host_args": {"i": "0"}, "T": {"type": "DT_FLOAT"}, "filter_format": {"s": "SFdJTw=="}, "num_args": {"i": "1"}, "padding": {"s": "U0FNRQ=="}, "leakyrelu_alpha": {"f": 0.2}, "data_format": {"s": "TkhXQw=="}, "fused_ops": {"list": {"s": ["Qmlhc0FkZA=="]}}}}, {"name": "model_13/tf.math.sigmoid_31/Sigmoid", "op": "Sigmoid", "input": ["model_13/tf.math.add_43/Add"], "attr": {"T": {"type": "DT_FLOAT"}}}, {"name": "model_13/tf.math.multiply_139/Mul", "op": "Mul", "input": ["model_13/tf.math.add_43/Add", "model_13/tf.math.sigmoid_31/Sigmoid"], "attr": {"T": {"type": "DT_FLOAT"}}}, {"name": "model_13/tf.strided_slice_10/StridedSlice", "op": "StridedSlice", "input": ["model_13/tf.math.multiply_139/Mul", "model_13/tf.strided_slice_10/ones_like/tensor", "model_13/tf.strided_slice_10/StridedSlice/end", "model_13/tf.strided_slice_10/ones_like"], "attr": {"Index": {"type": "DT_INT64"}, "T": {"type": "DT_FLOAT"}, "shrink_axis_mask": {"i": "0"}, "begin_mask": {"i": "15"}, "end_mask": {"i": "7"}, "ellipsis_mask": {"i": "0"}, "new_axis_mask": {"i": "0"}}}, {"name": "model_13/tf.strided_slice_11/StridedSlice", "op": "StridedSlice", "input": ["model_13/tf.math.multiply_139/Mul", "model_13/tf.strided_slice_11/ones_like/tensor", "model_13/tf.strided_slice_11/StridedSlice/end", "model_13/tf.strided_slice_11/ones_like"], "attr": {"T": {"type": "DT_FLOAT"}, "end_mask": {"i": "7"}, "ellipsis_mask": {"i": "0"}, "Index": {"type": "DT_INT64"}, "new_axis_mask": {"i": "0"}, "shrink_axis_mask": {"i": "0"}, "begin_mask": {"i": "7"}}}, {"name": "model_13/tf.math.add_44/Add", "op": "_FusedConv2D", "input": ["model_13/tf.strided_slice_11/StridedSlice", "model_13/tf.nn.convolution_32/convolution/filter", "model_13/tf.math.add_44/Add/y"], "device": "/device:CPU:0", "attr": {"strides": {"list": {"i": ["1", "1", "1", "1"]}}, "fused_ops": {"list": {"s": ["Qmlhc0FkZA=="]}}, "data_format": {"s": "TkhXQw=="}, "filter_format": {"s": "SFdJTw=="}, "num_args": {"i": "1"}, "padding": {"s": "U0FNRQ=="}, "TArgs": {"list": {"type": ["DT_FLOAT"]}}, "T": {"type": "DT_FLOAT"}, "explicit_paddings": {"list": {}}, "epsilon": {"f": 0.0}, "dilations": {"list": {"i": ["1", "1", "1", "1"]}}, "num_host_args": {"i": "0"}, "leakyrelu_alpha": {"f": 0.2}, "use_cudnn_on_gpu": {"b": true}}}, {"name": "model_13/tf.math.sigmoid_32/Sigmoid", "op": "Sigmoid", "input": ["model_13/tf.math.add_44/Add"], "attr": {"T": {"type": "DT_FLOAT"}}}, {"name": "model_13/tf.math.multiply_143/Mul", "op": "Mul", "input": ["model_13/tf.math.add_44/Add", "model_13/tf.math.sigmoid_32/Sigmoid"], "attr": {"T": {"type": "DT_FLOAT"}}}, {"name": "model_13/tf.math.add_45/Add", "op": "_FusedConv2D", "input": ["model_13/tf.math.multiply_143/Mul", "model_13/tf.nn.convolution_33/convolution/filter", "model_13/tf.math.add_45/Add/y"], "device": "/device:CPU:0", "attr": {"T": {"type": "DT_FLOAT"}, "fused_ops": {"list": {"s": ["Qmlhc0FkZA=="]}}, "padding": {"s": "U0FNRQ=="}, "dilations": {"list": {"i": ["1", "1", "1", "1"]}}, "leakyrelu_alpha": {"f": 0.2}, "data_format": {"s": "TkhXQw=="}, "num_host_args": {"i": "0"}, "TArgs": {"list": {"type": ["DT_FLOAT"]}}, "num_args": {"i": "1"}, "explicit_paddings": {"list": {}}, "use_cudnn_on_gpu": {"b": true}, "strides": {"list": {"i": ["1", "1", "1", "1"]}}, "filter_format": {"s": "SFdJTw=="}, "epsilon": {"f": 0.0}}}, {"name": "model_13/tf.math.sigmoid_33/Sigmoid", "op": "Sigmoid", "input": ["model_13/tf.math.add_45/Add"], "attr": {"T": {"type": "DT_FLOAT"}}}, {"name": "model_13/tf.math.multiply_147/Mul", "op": "Mul", "input": ["model_13/tf.math.add_45/Add", "model_13/tf.math.sigmoid_33/Sigmoid"], "attr": {"T": {"type": "DT_FLOAT"}}}, {"name": "model_13/tf.concat_8/concat", "op": "ConcatV2", "input": ["model_13/tf.strided_slice_10/StridedSlice", "model_13/tf.strided_slice_11/StridedSlice", "model_13/tf.math.multiply_147/Mul", "model_13/tf.concat_8/concat/axis"], "attr": {"N": {"i": "3"}, "T": {"type": "DT_FLOAT"}, "Tidx": {"type": "DT_INT32"}}}, {"name": "model_13/tf.math.add_46/Add", "op": "_FusedConv2D", "input": ["model_13/tf.concat_8/concat", "model_13/tf.nn.convolution_34/convolution/filter", "model_13/tf.math.add_46/Add/y"], "device": "/device:CPU:0", "attr": {"use_cudnn_on_gpu": {"b": true}, "fused_ops": {"list": {"s": ["Qmlhc0FkZA=="]}}, "explicit_paddings": {"list": {}}, "TArgs": {"list": {"type": ["DT_FLOAT"]}}, "dilations": {"list": {"i": ["1", "1", "1", "1"]}}, "epsilon": {"f": 0.0}, "data_format": {"s": "TkhXQw=="}, "num_args": {"i": "1"}, "padding": {"s": "U0FNRQ=="}, "T": {"type": "DT_FLOAT"}, "filter_format": {"s": "SFdJTw=="}, "num_host_args": {"i": "0"}, "leakyrelu_alpha": {"f": 0.2}, "strides": {"list": {"i": ["1", "1", "1", "1"]}}}}, {"name": "model_13/tf.math.sigmoid_34/Sigmoid", "op": "Sigmoid", "input": ["model_13/tf.math.add_46/Add"], "attr": {"T": {"type": "DT_FLOAT"}}}, {"name": "model_13/tf.math.multiply_151/Mul", "op": "Mul", "input": ["model_13/tf.math.add_46/Add", "model_13/tf.math.sigmoid_34/Sigmoid"], "attr": {"T": {"type": "DT_FLOAT"}}}, {"name": "model_13/tf.math.add_48/Add", "op": "_FusedConv2D", "input": ["model_13/tf.math.multiply_151/Mul", "model_13/tf.nn.convolution_36/convolution/filter", "model_13/tf.math.add_48/Add/y"], "device": "/device:CPU:0", "attr": {"num_args": {"i": "1"}, "data_format": {"s": "TkhXQw=="}, "dilations": {"list": {"i": ["1", "1", "1", "1"]}}, "strides": {"list": {"i": ["1", "1", "1", "1"]}}, "filter_format": {"s": "SFdJTw=="}, "T": {"type": "DT_FLOAT"}, "leakyrelu_alpha": {"f": 0.2}, "padding": {"s": "U0FNRQ=="}, "use_cudnn_on_gpu": {"b": true}, "explicit_paddings": {"list": {}}, "fused_ops": {"list": {"s": ["Qmlhc0FkZA=="]}}, "epsilon": {"f": 0.0}, "num_host_args": {"i": "0"}, "TArgs": {"list": {"type": ["DT_FLOAT"]}}}}, {"name": "model_13/tf.math.add_49/Add", "op": "_FusedConv2D", "input": ["model_13/tf.math.multiply_151/Mul", "model_13/tf.nn.convolution_37/convolution/filter", "model_13/tf.math.add_49/Add/y"], "device": "/device:CPU:0", "attr": {"strides": {"list": {"i": ["1", "1", "1", "1"]}}, "use_cudnn_on_gpu": {"b": true}, "filter_format": {"s": "SFdJTw=="}, "padding": {"s": "U0FNRQ=="}, "explicit_paddings": {"list": {}}, "TArgs": {"list": {"type": ["DT_FLOAT"]}}, "num_args": {"i": "1"}, "epsilon": {"f": 0.0}, "data_format": {"s": "TkhXQw=="}, "leakyrelu_alpha": {"f": 0.2}, "num_host_args": {"i": "0"}, "dilations": {"list": {"i": ["1", "1", "1", "1"]}}, "T": {"type": "DT_FLOAT"}, "fused_ops": {"list": {"s": ["Qmlhc0FkZA=="]}}}}, {"name": "model_13/tf.compat.v1.pad_5/Pad", "op": "Pad", "input": ["model_13/tf.math.multiply_151/Mul", "model_13/tf.compat.v1.pad_5/Pad/paddings"], "attr": {"Tpaddings": {"type": "DT_INT32"}, "T": {"type": "DT_FLOAT"}}}, {"name": "model_13/tf.math.sigmoid_36/Sigmoid", "op": "Sigmoid", "input": ["model_13/tf.math.add_48/Add"], "attr": {"T": {"type": "DT_FLOAT"}}}, {"name": "model_13/tf.math.sigmoid_37/Sigmoid", "op": "Sigmoid", "input": ["model_13/tf.math.add_49/Add"], "attr": {"T": {"type": "DT_FLOAT"}}}, {"name": "model_13/tf.math.add_47/Add", "op": "_FusedConv2D", "input": ["model_13/tf.compat.v1.pad_5/Pad", "model_13/tf.nn.convolution_35/convolution/filter", "model_13/tf.math.add_47/Add/y"], "device": "/device:CPU:0", "attr": {"fused_ops": {"list": {"s": ["Qmlhc0FkZA=="]}}, "data_format": {"s": "TkhXQw=="}, "T": {"type": "DT_FLOAT"}, "padding": {"s": "VkFMSUQ="}, "use_cudnn_on_gpu": {"b": true}, "num_args": {"i": "1"}, "explicit_paddings": {"list": {}}, "num_host_args": {"i": "0"}, "dilations": {"list": {"i": ["1", "1", "1", "1"]}}, "TArgs": {"list": {"type": ["DT_FLOAT"]}}, "leakyrelu_alpha": {"f": 0.2}, "strides": {"list": {"i": ["1", "2", "2", "1"]}}, "epsilon": {"f": 0.0}, "filter_format": {"s": "SFdJTw=="}}}, {"name": "model_13/tf.math.multiply_159/Mul", "op": "Mul", "input": ["model_13/tf.math.add_48/Add", "model_13/tf.math.sigmoid_36/Sigmoid"], "attr": {"T": {"type": "DT_FLOAT"}}}, {"name": "model_13/tf.math.multiply_163/Mul", "op": "Mul", "input": ["model_13/tf.math.add_49/Add", "model_13/tf.math.sigmoid_37/Sigmoid"], "attr": {"T": {"type": "DT_FLOAT"}}}, {"name": "model_13/tf.math.sigmoid_35/Sigmoid", "op": "Sigmoid", "input": ["model_13/tf.math.add_47/Add"], "attr": {"T": {"type": "DT_FLOAT"}}}, {"name": "model_13/tf.math.add_50/Add", "op": "_FusedConv2D", "input": ["model_13/tf.math.multiply_159/Mul", "model_13/tf.nn.convolution_38/convolution/filter", "model_13/tf.math.add_50/Add/y"], "device": "/device:CPU:0", "attr": {"epsilon": {"f": 0.0}, "T": {"type": "DT_FLOAT"}, "filter_format": {"s": "SFdJTw=="}, "leakyrelu_alpha": {"f": 0.2}, "num_args": {"i": "1"}, "data_format": {"s": "TkhXQw=="}, "strides": {"list": {"i": ["1", "1", "1", "1"]}}, "use_cudnn_on_gpu": {"b": true}, "padding": {"s": "U0FNRQ=="}, "explicit_paddings": {"list": {}}, "num_host_args": {"i": "0"}, "dilations": {"list": {"i": ["1", "1", "1", "1"]}}, "TArgs": {"list": {"type": ["DT_FLOAT"]}}, "fused_ops": {"list": {"s": ["Qmlhc0FkZA=="]}}}}, {"name": "model_13/tf.math.add_51/Add", "op": "_FusedConv2D", "input": ["model_13/tf.math.multiply_163/Mul", "model_13/tf.nn.convolution_39/convolution/filter", "model_13/tf.math.add_51/Add/y"], "device": "/device:CPU:0", "attr": {"epsilon": {"f": 0.0}, "TArgs": {"list": {"type": ["DT_FLOAT"]}}, "dilations": {"list": {"i": ["1", "1", "1", "1"]}}, "num_host_args": {"i": "0"}, "strides": {"list": {"i": ["1", "1", "1", "1"]}}, "filter_format": {"s": "SFdJTw=="}, "leakyrelu_alpha": {"f": 0.2}, "padding": {"s": "U0FNRQ=="}, "data_format": {"s": "TkhXQw=="}, "num_args": {"i": "1"}, "use_cudnn_on_gpu": {"b": true}, "fused_ops": {"list": {"s": ["Qmlhc0FkZA=="]}}, "explicit_paddings": {"list": {}}, "T": {"type": "DT_FLOAT"}}}, {"name": "model_13/tf.math.multiply_155/Mul", "op": "Mul", "input": ["model_13/tf.math.add_47/Add", "model_13/tf.math.sigmoid_35/Sigmoid"], "attr": {"T": {"type": "DT_FLOAT"}}}, {"name": "model_13/tf.math.sigmoid_38/Sigmoid", "op": "Sigmoid", "input": ["model_13/tf.math.add_50/Add"], "attr": {"T": {"type": "DT_FLOAT"}}}, {"name": "model_13/tf.math.sigmoid_39/Sigmoid", "op": "Sigmoid", "input": ["model_13/tf.math.add_51/Add"], "attr": {"T": {"type": "DT_FLOAT"}}}, {"name": "model_13/tf.concat_9/concat", "op": "ConcatV2", "input": ["model_13/tf.math.multiply_155/Mul", "model_13/tf.math.multiply_135/Mul", "model_13/tf.concat_9/concat/axis"], "attr": {"N": {"i": "2"}, "T": {"type": "DT_FLOAT"}, "Tidx": {"type": "DT_INT32"}}}, {"name": "model_13/tf.math.multiply_167/Mul", "op": "Mul", "input": ["model_13/tf.math.add_50/Add", "model_13/tf.math.sigmoid_38/Sigmoid"], "attr": {"T": {"type": "DT_FLOAT"}}}, {"name": "model_13/tf.math.multiply_171/Mul", "op": "Mul", "input": ["model_13/tf.math.add_51/Add", "model_13/tf.math.sigmoid_39/Sigmoid"], "attr": {"T": {"type": "DT_FLOAT"}}}, {"name": "model_13/tf.math.add_52/Add", "op": "_FusedConv2D", "input": ["model_13/tf.concat_9/concat", "model_13/tf.nn.convolution_40/convolution/filter", "model_13/tf.math.add_52/Add/y"], "device": "/device:CPU:0", "attr": {"data_format": {"s": "TkhXQw=="}, "use_cudnn_on_gpu": {"b": true}, "filter_format": {"s": "SFdJTw=="}, "TArgs": {"list": {"type": ["DT_FLOAT"]}}, "dilations": {"list": {"i": ["1", "1", "1", "1"]}}, "strides": {"list": {"i": ["1", "1", "1", "1"]}}, "leakyrelu_alpha": {"f": 0.2}, "epsilon": {"f": 0.0}, "explicit_paddings": {"list": {}}, "num_host_args": {"i": "0"}, "fused_ops": {"list": {"s": ["Qmlhc0FkZA=="]}}, "padding": {"s": "U0FNRQ=="}, "num_args": {"i": "1"}, "T": {"type": "DT_FLOAT"}}}, {"name": "model_13/tf.math.add_53/Add", "op": "_FusedConv2D", "input": ["model_13/tf.math.multiply_167/Mul", "model_13/tf.nn.convolution_41/convolution/filter", "model_13/tf.math.add_53/Add/y"], "device": "/device:CPU:0", "attr": {"use_cudnn_on_gpu": {"b": true}, "epsilon": {"f": 0.0}, "padding": {"s": "U0FNRQ=="}, "data_format": {"s": "TkhXQw=="}, "fused_ops": {"list": {"s": ["Qmlhc0FkZA=="]}}, "filter_format": {"s": "SFdJTw=="}, "dilations": {"list": {"i": ["1", "1", "1", "1"]}}, "leakyrelu_alpha": {"f": 0.2}, "TArgs": {"list": {"type": ["DT_FLOAT"]}}, "T": {"type": "DT_FLOAT"}, "explicit_paddings": {"list": {}}, "strides": {"list": {"i": ["1", "1", "1", "1"]}}, "num_host_args": {"i": "0"}, "num_args": {"i": "1"}}}, {"name": "model_13/tf.math.add_54/Add", "op": "_FusedConv2D", "input": ["model_13/tf.math.multiply_171/Mul", "model_13/tf.nn.convolution_42/convolution/filter", "model_13/tf.math.add_54/Add/y"], "device": "/device:CPU:0", "attr": {"explicit_paddings": {"list": {}}, "padding": {"s": "U0FNRQ=="}, "num_host_args": {"i": "0"}, "TArgs": {"list": {"type": ["DT_FLOAT"]}}, "strides": {"list": {"i": ["1", "1", "1", "1"]}}, "epsilon": {"f": 0.0}, "leakyrelu_alpha": {"f": 0.2}, "dilations": {"list": {"i": ["1", "1", "1", "1"]}}, "T": {"type": "DT_FLOAT"}, "num_args": {"i": "1"}, "filter_format": {"s": "SFdJTw=="}, "use_cudnn_on_gpu": {"b": true}, "data_format": {"s": "TkhXQw=="}, "fused_ops": {"list": {"s": ["Qmlhc0FkZA=="]}}}}, {"name": "model_13/tf.math.sigmoid_40/Sigmoid", "op": "Sigmoid", "input": ["model_13/tf.math.add_52/Add"], "attr": {"T": {"type": "DT_FLOAT"}}}, {"name": "model_13/tf.concat_10/concat", "op": "ConcatV2", "input": ["model_13/tf.math.add_53/Add", "model_13/tf.math.add_54/Add", "model_13/tf.concat_10/concat/axis"], "attr": {"Tidx": {"type": "DT_INT32"}, "T": {"type": "DT_FLOAT"}, "N": {"i": "2"}}}, {"name": "model_13/tf.math.multiply_175/Mul", "op": "Mul", "input": ["model_13/tf.math.add_52/Add", "model_13/tf.math.sigmoid_40/Sigmoid"], "attr": {"T": {"type": "DT_FLOAT"}}}, {"name": "model_13/tf.compat.v1.transpose_2/transpose", "op": "Transpose", "input": ["model_13/tf.concat_10/concat", "model_13/tf.compat.v1.transpose_2/transpose/perm"], "attr": {"Tperm": {"type": "DT_INT32"}, "T": {"type": "DT_FLOAT"}}}, {"name": "model_13/tf.strided_slice_12/StridedSlice", "op": "StridedSlice", "input": ["model_13/tf.math.multiply_175/Mul", "model_13/tf.strided_slice_12/ones_like/tensor", "model_13/tf.strided_slice_12/StridedSlice/end", "model_13/tf.strided_slice_12/ones_like"], "attr": {"Index": {"type": "DT_INT64"}, "ellipsis_mask": {"i": "0"}, "shrink_axis_mask": {"i": "0"}, "new_axis_mask": {"i": "0"}, "begin_mask": {"i": "15"}, "T": {"type": "DT_FLOAT"}, "end_mask": {"i": "7"}}}, {"name": "model_13/tf.strided_slice_13/StridedSlice", "op": "StridedSlice", "input": ["model_13/tf.math.multiply_175/Mul", "model_13/tf.strided_slice_13/ones_like/tensor", "model_13/tf.strided_slice_13/StridedSlice/end", "model_13/tf.strided_slice_13/ones_like"], "attr": {"new_axis_mask": {"i": "0"}, "end_mask": {"i": "7"}, "Index": {"type": "DT_INT64"}, "shrink_axis_mask": {"i": "0"}, "ellipsis_mask": {"i": "0"}, "begin_mask": {"i": "7"}, "T": {"type": "DT_FLOAT"}}}, {"name": "model_13/tf.reshape_2/Reshape", "op": "Reshape", "input": ["model_13/tf.compat.v1.transpose_2/transpose", "model_13/tf.reshape_2/Reshape/shape"], "attr": {"Tshape": {"type": "DT_INT32"}, "T": {"type": "DT_FLOAT"}}}, {"name": "model_13/tf.math.add_55/Add", "op": "_FusedConv2D", "input": ["model_13/tf.strided_slice_13/StridedSlice", "model_13/tf.nn.convolution_43/convolution/filter", "model_13/tf.math.add_55/Add/y"], "device": "/device:CPU:0", "attr": {"padding": {"s": "U0FNRQ=="}, "data_format": {"s": "TkhXQw=="}, "strides": {"list": {"i": ["1", "1", "1", "1"]}}, "T": {"type": "DT_FLOAT"}, "num_args": {"i": "1"}, "use_cudnn_on_gpu": {"b": true}, "leakyrelu_alpha": {"f": 0.2}, "filter_format": {"s": "SFdJTw=="}, "num_host_args": {"i": "0"}, "fused_ops": {"list": {"s": ["Qmlhc0FkZA=="]}}, "dilations": {"list": {"i": ["1", "1", "1", "1"]}}, "TArgs": {"list": {"type": ["DT_FLOAT"]}}, "explicit_paddings": {"list": {}}, "epsilon": {"f": 0.0}}}, {"name": "model_13/tf.math.sigmoid_41/Sigmoid", "op": "Sigmoid", "input": ["model_13/tf.math.add_55/Add"], "attr": {"T": {"type": "DT_FLOAT"}}}, {"name": "model_13/tf.math.multiply_179/Mul", "op": "Mul", "input": ["model_13/tf.math.add_55/Add", "model_13/tf.math.sigmoid_41/Sigmoid"], "attr": {"T": {"type": "DT_FLOAT"}}}, {"name": "model_13/tf.math.add_56/Add", "op": "_FusedConv2D", "input": ["model_13/tf.math.multiply_179/Mul", "model_13/tf.nn.convolution_44/convolution/filter", "model_13/tf.math.add_56/Add/y"], "device": "/device:CPU:0", "attr": {"T": {"type": "DT_FLOAT"}, "explicit_paddings": {"list": {}}, "fused_ops": {"list": {"s": ["Qmlhc0FkZA=="]}}, "num_args": {"i": "1"}, "TArgs": {"list": {"type": ["DT_FLOAT"]}}, "leakyrelu_alpha": {"f": 0.2}, "num_host_args": {"i": "0"}, "strides": {"list": {"i": ["1", "1", "1", "1"]}}, "use_cudnn_on_gpu": {"b": true}, "epsilon": {"f": 0.0}, "data_format": {"s": "TkhXQw=="}, "padding": {"s": "U0FNRQ=="}, "dilations": {"list": {"i": ["1", "1", "1", "1"]}}, "filter_format": {"s": "SFdJTw=="}}}, {"name": "model_13/tf.math.sigmoid_42/Sigmoid", "op": "Sigmoid", "input": ["model_13/tf.math.add_56/Add"], "attr": {"T": {"type": "DT_FLOAT"}}}, {"name": "model_13/tf.math.multiply_183/Mul", "op": "Mul", "input": ["model_13/tf.math.add_56/Add", "model_13/tf.math.sigmoid_42/Sigmoid"], "attr": {"T": {"type": "DT_FLOAT"}}}, {"name": "model_13/tf.concat_11/concat", "op": "ConcatV2", "input": ["model_13/tf.strided_slice_12/StridedSlice", "model_13/tf.strided_slice_13/StridedSlice", "model_13/tf.math.multiply_183/Mul", "model_13/tf.concat_11/concat/axis"], "attr": {"T": {"type": "DT_FLOAT"}, "Tidx": {"type": "DT_INT32"}, "N": {"i": "3"}}}, {"name": "model_13/tf.math.add_57/Add", "op": "_FusedConv2D", "input": ["model_13/tf.concat_11/concat", "model_13/tf.nn.convolution_45/convolution/filter", "model_13/tf.math.add_57/Add/y"], "device": "/device:CPU:0", "attr": {"leakyrelu_alpha": {"f": 0.2}, "epsilon": {"f": 0.0}, "padding": {"s": "U0FNRQ=="}, "use_cudnn_on_gpu": {"b": true}, "T": {"type": "DT_FLOAT"}, "data_format": {"s": "TkhXQw=="}, "dilations": {"list": {"i": ["1", "1", "1", "1"]}}, "filter_format": {"s": "SFdJTw=="}, "TArgs": {"list": {"type": ["DT_FLOAT"]}}, "strides": {"list": {"i": ["1", "1", "1", "1"]}}, "fused_ops": {"list": {"s": ["Qmlhc0FkZA=="]}}, "explicit_paddings": {"list": {}}, "num_args": {"i": "1"}, "num_host_args": {"i": "0"}}}, {"name": "model_13/tf.math.sigmoid_43/Sigmoid", "op": "Sigmoid", "input": ["model_13/tf.math.add_57/Add"], "attr": {"T": {"type": "DT_FLOAT"}}}, {"name": "model_13/tf.math.multiply_187/Mul", "op": "Mul", "input": ["model_13/tf.math.add_57/Add", "model_13/tf.math.sigmoid_43/Sigmoid"], "attr": {"T": {"type": "DT_FLOAT"}}}, {"name": "model_13/tf.math.add_59/Add", "op": "_FusedConv2D", "input": ["model_13/tf.math.multiply_187/Mul", "model_13/tf.nn.convolution_47/convolution/filter", "model_13/tf.math.add_59/Add/y"], "device": "/device:CPU:0", "attr": {"data_format": {"s": "TkhXQw=="}, "filter_format": {"s": "SFdJTw=="}, "TArgs": {"list": {"type": ["DT_FLOAT"]}}, "num_args": {"i": "1"}, "T": {"type": "DT_FLOAT"}, "num_host_args": {"i": "0"}, "leakyrelu_alpha": {"f": 0.2}, "fused_ops": {"list": {"s": ["Qmlhc0FkZA=="]}}, "padding": {"s": "U0FNRQ=="}, "epsilon": {"f": 0.0}, "use_cudnn_on_gpu": {"b": true}, "dilations": {"list": {"i": ["1", "1", "1", "1"]}}, "strides": {"list": {"i": ["1", "1", "1", "1"]}}, "explicit_paddings": {"list": {}}}}, {"name": "model_13/tf.math.add_60/Add", "op": "_FusedConv2D", "input": ["model_13/tf.math.multiply_187/Mul", "model_13/tf.nn.convolution_48/convolution/filter", "model_13/tf.math.add_60/Add/y"], "device": "/device:CPU:0", "attr": {"filter_format": {"s": "SFdJTw=="}, "num_args": {"i": "1"}, "TArgs": {"list": {"type": ["DT_FLOAT"]}}, "fused_ops": {"list": {"s": ["Qmlhc0FkZA=="]}}, "strides": {"list": {"i": ["1", "1", "1", "1"]}}, "padding": {"s": "U0FNRQ=="}, "explicit_paddings": {"list": {}}, "data_format": {"s": "TkhXQw=="}, "epsilon": {"f": 0.0}, "T": {"type": "DT_FLOAT"}, "leakyrelu_alpha": {"f": 0.2}, "use_cudnn_on_gpu": {"b": true}, "dilations": {"list": {"i": ["1", "1", "1", "1"]}}, "num_host_args": {"i": "0"}}}, {"name": "model_13/tf.compat.v1.pad_6/Pad", "op": "Pad", "input": ["model_13/tf.math.multiply_187/Mul", "model_13/tf.compat.v1.pad_6/Pad/paddings"], "attr": {"Tpaddings": {"type": "DT_INT32"}, "T": {"type": "DT_FLOAT"}}}, {"name": "model_13/tf.math.sigmoid_45/Sigmoid", "op": "Sigmoid", "input": ["model_13/tf.math.add_59/Add"], "attr": {"T": {"type": "DT_FLOAT"}}}, {"name": "model_13/tf.math.sigmoid_46/Sigmoid", "op": "Sigmoid", "input": ["model_13/tf.math.add_60/Add"], "attr": {"T": {"type": "DT_FLOAT"}}}, {"name": "model_13/tf.math.add_58/Add", "op": "_FusedConv2D", "input": ["model_13/tf.compat.v1.pad_6/Pad", "model_13/tf.nn.convolution_46/convolution/filter", "model_13/tf.math.add_58/Add/y"], "device": "/device:CPU:0", "attr": {"num_host_args": {"i": "0"}, "explicit_paddings": {"list": {}}, "epsilon": {"f": 0.0}, "strides": {"list": {"i": ["1", "2", "2", "1"]}}, "data_format": {"s": "TkhXQw=="}, "dilations": {"list": {"i": ["1", "1", "1", "1"]}}, "leakyrelu_alpha": {"f": 0.2}, "filter_format": {"s": "SFdJTw=="}, "num_args": {"i": "1"}, "padding": {"s": "VkFMSUQ="}, "TArgs": {"list": {"type": ["DT_FLOAT"]}}, "fused_ops": {"list": {"s": ["Qmlhc0FkZA=="]}}, "use_cudnn_on_gpu": {"b": true}, "T": {"type": "DT_FLOAT"}}}, {"name": "model_13/tf.math.multiply_195/Mul", "op": "Mul", "input": ["model_13/tf.math.add_59/Add", "model_13/tf.math.sigmoid_45/Sigmoid"], "attr": {"T": {"type": "DT_FLOAT"}}}, {"name": "model_13/tf.math.multiply_199/Mul", "op": "Mul", "input": ["model_13/tf.math.add_60/Add", "model_13/tf.math.sigmoid_46/Sigmoid"], "attr": {"T": {"type": "DT_FLOAT"}}}, {"name": "model_13/tf.math.sigmoid_44/Sigmoid", "op": "Sigmoid", "input": ["model_13/tf.math.add_58/Add"], "attr": {"T": {"type": "DT_FLOAT"}}}, {"name": "model_13/tf.math.add_61/Add", "op": "_FusedConv2D", "input": ["model_13/tf.math.multiply_195/Mul", "model_13/tf.nn.convolution_49/convolution/filter", "model_13/tf.math.add_61/Add/y"], "device": "/device:CPU:0", "attr": {"filter_format": {"s": "SFdJTw=="}, "epsilon": {"f": 0.0}, "num_host_args": {"i": "0"}, "data_format": {"s": "TkhXQw=="}, "explicit_paddings": {"list": {}}, "leakyrelu_alpha": {"f": 0.2}, "strides": {"list": {"i": ["1", "1", "1", "1"]}}, "T": {"type": "DT_FLOAT"}, "use_cudnn_on_gpu": {"b": true}, "dilations": {"list": {"i": ["1", "1", "1", "1"]}}, "TArgs": {"list": {"type": ["DT_FLOAT"]}}, "num_args": {"i": "1"}, "fused_ops": {"list": {"s": ["Qmlhc0FkZA=="]}}, "padding": {"s": "U0FNRQ=="}}}, {"name": "model_13/tf.math.add_62/Add", "op": "_FusedConv2D", "input": ["model_13/tf.math.multiply_199/Mul", "model_13/tf.nn.convolution_50/convolution/filter", "model_13/tf.math.add_62/Add/y"], "device": "/device:CPU:0", "attr": {"T": {"type": "DT_FLOAT"}, "fused_ops": {"list": {"s": ["Qmlhc0FkZA=="]}}, "strides": {"list": {"i": ["1", "1", "1", "1"]}}, "explicit_paddings": {"list": {}}, "data_format": {"s": "TkhXQw=="}, "num_host_args": {"i": "0"}, "num_args": {"i": "1"}, "TArgs": {"list": {"type": ["DT_FLOAT"]}}, "use_cudnn_on_gpu": {"b": true}, "epsilon": {"f": 0.0}, "leakyrelu_alpha": {"f": 0.2}, "padding": {"s": "U0FNRQ=="}, "dilations": {"list": {"i": ["1", "1", "1", "1"]}}, "filter_format": {"s": "SFdJTw=="}}}, {"name": "model_13/tf.math.multiply_191/Mul", "op": "Mul", "input": ["model_13/tf.math.add_58/Add", "model_13/tf.math.sigmoid_44/Sigmoid"], "attr": {"T": {"type": "DT_FLOAT"}}}, {"name": "model_13/tf.math.sigmoid_47/Sigmoid", "op": "Sigmoid", "input": ["model_13/tf.math.add_61/Add"], "attr": {"T": {"type": "DT_FLOAT"}}}, {"name": "model_13/tf.math.sigmoid_48/Sigmoid", "op": "Sigmoid", "input": ["model_13/tf.math.add_62/Add"], "attr": {"T": {"type": "DT_FLOAT"}}}, {"name": "model_13/tf.concat_12/concat", "op": "ConcatV2", "input": ["model_13/tf.math.multiply_191/Mul", "model_13/tf.math.multiply_119/Mul", "model_13/tf.concat_12/concat/axis"], "attr": {"T": {"type": "DT_FLOAT"}, "Tidx": {"type": "DT_INT32"}, "N": {"i": "2"}}}, {"name": "model_13/tf.math.multiply_203/Mul", "op": "Mul", "input": ["model_13/tf.math.add_61/Add", "model_13/tf.math.sigmoid_47/Sigmoid"], "attr": {"T": {"type": "DT_FLOAT"}}}, {"name": "model_13/tf.math.multiply_207/Mul", "op": "Mul", "input": ["model_13/tf.math.add_62/Add", "model_13/tf.math.sigmoid_48/Sigmoid"], "attr": {"T": {"type": "DT_FLOAT"}}}, {"name": "model_13/tf.math.add_63/Add", "op": "_FusedConv2D", "input": ["model_13/tf.concat_12/concat", "model_13/tf.nn.convolution_51/convolution/filter", "model_13/tf.math.add_63/Add/y"], "device": "/device:CPU:0", "attr": {"strides": {"list": {"i": ["1", "1", "1", "1"]}}, "filter_format": {"s": "SFdJTw=="}, "num_host_args": {"i": "0"}, "fused_ops": {"list": {"s": ["Qmlhc0FkZA=="]}}, "dilations": {"list": {"i": ["1", "1", "1", "1"]}}, "TArgs": {"list": {"type": ["DT_FLOAT"]}}, "data_format": {"s": "TkhXQw=="}, "epsilon": {"f": 0.0}, "padding": {"s": "U0FNRQ=="}, "num_args": {"i": "1"}, "use_cudnn_on_gpu": {"b": true}, "T": {"type": "DT_FLOAT"}, "explicit_paddings": {"list": {}}, "leakyrelu_alpha": {"f": 0.2}}}, {"name": "model_13/tf.math.add_64/Add", "op": "_FusedConv2D", "input": ["model_13/tf.math.multiply_203/Mul", "model_13/tf.nn.convolution_52/convolution/filter", "model_13/tf.math.add_64/Add/y"], "device": "/device:CPU:0", "attr": {"explicit_paddings": {"list": {}}, "use_cudnn_on_gpu": {"b": true}, "num_args": {"i": "1"}, "epsilon": {"f": 0.0}, "TArgs": {"list": {"type": ["DT_FLOAT"]}}, "leakyrelu_alpha": {"f": 0.2}, "fused_ops": {"list": {"s": ["Qmlhc0FkZA=="]}}, "strides": {"list": {"i": ["1", "1", "1", "1"]}}, "padding": {"s": "U0FNRQ=="}, "dilations": {"list": {"i": ["1", "1", "1", "1"]}}, "filter_format": {"s": "SFdJTw=="}, "num_host_args": {"i": "0"}, "T": {"type": "DT_FLOAT"}, "data_format": {"s": "TkhXQw=="}}}, {"name": "model_13/tf.math.add_65/Add", "op": "_FusedConv2D", "input": ["model_13/tf.math.multiply_207/Mul", "model_13/tf.nn.convolution_53/convolution/filter", "model_13/tf.math.add_65/Add/y"], "device": "/device:CPU:0", "attr": {"padding": {"s": "U0FNRQ=="}, "use_cudnn_on_gpu": {"b": true}, "fused_ops": {"list": {"s": ["Qmlhc0FkZA=="]}}, "strides": {"list": {"i": ["1", "1", "1", "1"]}}, "filter_format": {"s": "SFdJTw=="}, "explicit_paddings": {"list": {}}, "num_host_args": {"i": "0"}, "num_args": {"i": "1"}, "T": {"type": "DT_FLOAT"}, "data_format": {"s": "TkhXQw=="}, "epsilon": {"f": 0.0}, "TArgs": {"list": {"type": ["DT_FLOAT"]}}, "dilations": {"list": {"i": ["1", "1", "1", "1"]}}, "leakyrelu_alpha": {"f": 0.2}}}, {"name": "model_13/tf.math.sigmoid_49/Sigmoid", "op": "Sigmoid", "input": ["model_13/tf.math.add_63/Add"], "attr": {"T": {"type": "DT_FLOAT"}}}, {"name": "model_13/tf.concat_13/concat", "op": "ConcatV2", "input": ["model_13/tf.math.add_64/Add", "model_13/tf.math.add_65/Add", "model_13/tf.concat_13/concat/axis"], "attr": {"N": {"i": "2"}, "T": {"type": "DT_FLOAT"}, "Tidx": {"type": "DT_INT32"}}}, {"name": "model_13/tf.math.multiply_211/Mul", "op": "Mul", "input": ["model_13/tf.math.add_63/Add", "model_13/tf.math.sigmoid_49/Sigmoid"], "attr": {"T": {"type": "DT_FLOAT"}}}, {"name": "model_13/tf.compat.v1.transpose_7/transpose", "op": "Transpose", "input": ["model_13/tf.concat_13/concat", "model_13/tf.compat.v1.transpose_7/transpose/perm"], "attr": {"Tperm": {"type": "DT_INT32"}, "T": {"type": "DT_FLOAT"}}}, {"name": "model_13/tf.strided_slice_14/StridedSlice", "op": "StridedSlice", "input": ["model_13/tf.math.multiply_211/Mul", "model_13/tf.strided_slice_14/ones_like/tensor", "model_13/tf.strided_slice_14/StridedSlice/end", "model_13/tf.strided_slice_14/ones_like"], "attr": {"shrink_axis_mask": {"i": "0"}, "begin_mask": {"i": "15"}, "Index": {"type": "DT_INT64"}, "ellipsis_mask": {"i": "0"}, "T": {"type": "DT_FLOAT"}, "end_mask": {"i": "7"}, "new_axis_mask": {"i": "0"}}}, {"name": "model_13/tf.strided_slice_15/StridedSlice", "op": "StridedSlice", "input": ["model_13/tf.math.multiply_211/Mul", "model_13/tf.strided_slice_15/ones_like/tensor", "model_13/tf.strided_slice_15/StridedSlice/end", "model_13/tf.strided_slice_15/ones_like"], "attr": {"T": {"type": "DT_FLOAT"}, "Index": {"type": "DT_INT64"}, "shrink_axis_mask": {"i": "0"}, "begin_mask": {"i": "7"}, "end_mask": {"i": "7"}, "new_axis_mask": {"i": "0"}, "ellipsis_mask": {"i": "0"}}}, {"name": "model_13/tf.reshape_5/Reshape", "op": "Reshape", "input": ["model_13/tf.compat.v1.transpose_7/transpose", "model_13/tf.reshape_5/Reshape/shape"], "attr": {"T": {"type": "DT_FLOAT"}, "Tshape": {"type": "DT_INT32"}}}, {"name": "model_13/tf.math.add_66/Add", "op": "_FusedConv2D", "input": ["model_13/tf.strided_slice_15/StridedSlice", "model_13/tf.nn.convolution_54/convolution/filter", "model_13/tf.math.add_66/Add/y"], "device": "/device:CPU:0", "attr": {"num_host_args": {"i": "0"}, "filter_format": {"s": "SFdJTw=="}, "leakyrelu_alpha": {"f": 0.2}, "fused_ops": {"list": {"s": ["Qmlhc0FkZA=="]}}, "strides": {"list": {"i": ["1", "1", "1", "1"]}}, "TArgs": {"list": {"type": ["DT_FLOAT"]}}, "epsilon": {"f": 0.0}, "dilations": {"list": {"i": ["1", "1", "1", "1"]}}, "explicit_paddings": {"list": {}}, "num_args": {"i": "1"}, "data_format": {"s": "TkhXQw=="}, "use_cudnn_on_gpu": {"b": true}, "T": {"type": "DT_FLOAT"}, "padding": {"s": "U0FNRQ=="}}}, {"name": "model_13/tf.math.sigmoid_50/Sigmoid", "op": "Sigmoid", "input": ["model_13/tf.math.add_66/Add"], "attr": {"T": {"type": "DT_FLOAT"}}}, {"name": "model_13/tf.math.multiply_215/Mul", "op": "Mul", "input": ["model_13/tf.math.add_66/Add", "model_13/tf.math.sigmoid_50/Sigmoid"], "attr": {"T": {"type": "DT_FLOAT"}}}, {"name": "model_13/tf.math.add_67/Add", "op": "_FusedConv2D", "input": ["model_13/tf.math.multiply_215/Mul", "model_13/tf.nn.convolution_55/convolution/filter", "model_13/tf.math.add_67/Add/y"], "device": "/device:CPU:0", "attr": {"use_cudnn_on_gpu": {"b": true}, "leakyrelu_alpha": {"f": 0.2}, "fused_ops": {"list": {"s": ["Qmlhc0FkZA=="]}}, "num_host_args": {"i": "0"}, "dilations": {"list": {"i": ["1", "1", "1", "1"]}}, "TArgs": {"list": {"type": ["DT_FLOAT"]}}, "padding": {"s": "U0FNRQ=="}, "explicit_paddings": {"list": {}}, "epsilon": {"f": 0.0}, "T": {"type": "DT_FLOAT"}, "strides": {"list": {"i": ["1", "1", "1", "1"]}}, "num_args": {"i": "1"}, "data_format": {"s": "TkhXQw=="}, "filter_format": {"s": "SFdJTw=="}}}, {"name": "model_13/tf.math.sigmoid_51/Sigmoid", "op": "Sigmoid", "input": ["model_13/tf.math.add_67/Add"], "attr": {"T": {"type": "DT_FLOAT"}}}, {"name": "model_13/tf.math.multiply_219/Mul", "op": "Mul", "input": ["model_13/tf.math.add_67/Add", "model_13/tf.math.sigmoid_51/Sigmoid"], "attr": {"T": {"type": "DT_FLOAT"}}}, {"name": "model_13/tf.concat_14/concat", "op": "ConcatV2", "input": ["model_13/tf.strided_slice_14/StridedSlice", "model_13/tf.strided_slice_15/StridedSlice", "model_13/tf.math.multiply_219/Mul", "model_13/tf.concat_14/concat/axis"], "attr": {"Tidx": {"type": "DT_INT32"}, "T": {"type": "DT_FLOAT"}, "N": {"i": "3"}}}, {"name": "model_13/tf.math.add_68/Add", "op": "_FusedConv2D", "input": ["model_13/tf.concat_14/concat", "model_13/tf.nn.convolution_56/convolution/filter", "model_13/tf.math.add_68/Add/y"], "device": "/device:CPU:0", "attr": {"num_args": {"i": "1"}, "explicit_paddings": {"list": {}}, "TArgs": {"list": {"type": ["DT_FLOAT"]}}, "T": {"type": "DT_FLOAT"}, "use_cudnn_on_gpu": {"b": true}, "dilations": {"list": {"i": ["1", "1", "1", "1"]}}, "epsilon": {"f": 0.0}, "strides": {"list": {"i": ["1", "1", "1", "1"]}}, "padding": {"s": "U0FNRQ=="}, "filter_format": {"s": "SFdJTw=="}, "data_format": {"s": "TkhXQw=="}, "leakyrelu_alpha": {"f": 0.2}, "fused_ops": {"list": {"s": ["Qmlhc0FkZA=="]}}, "num_host_args": {"i": "0"}}}, {"name": "model_13/tf.math.sigmoid_52/Sigmoid", "op": "Sigmoid", "input": ["model_13/tf.math.add_68/Add"], "attr": {"T": {"type": "DT_FLOAT"}}}, {"name": "model_13/tf.math.multiply_223/Mul", "op": "Mul", "input": ["model_13/tf.math.add_68/Add", "model_13/tf.math.sigmoid_52/Sigmoid"], "attr": {"T": {"type": "DT_FLOAT"}}}, {"name": "model_13/tf.math.add_69/Add", "op": "_FusedConv2D", "input": ["model_13/tf.math.multiply_223/Mul", "model_13/tf.nn.convolution_57/convolution/filter", "model_13/tf.math.add_69/Add/y"], "device": "/device:CPU:0", "attr": {"leakyrelu_alpha": {"f": 0.2}, "use_cudnn_on_gpu": {"b": true}, "data_format": {"s": "TkhXQw=="}, "padding": {"s": "U0FNRQ=="}, "filter_format": {"s": "SFdJTw=="}, "epsilon": {"f": 0.0}, "dilations": {"list": {"i": ["1", "1", "1", "1"]}}, "T": {"type": "DT_FLOAT"}, "strides": {"list": {"i": ["1", "1", "1", "1"]}}, "TArgs": {"list": {"type": ["DT_FLOAT"]}}, "fused_ops": {"list": {"s": ["Qmlhc0FkZA=="]}}, "num_host_args": {"i": "0"}, "num_args": {"i": "1"}, "explicit_paddings": {"list": {}}}}, {"name": "model_13/tf.math.add_70/Add", "op": "_FusedConv2D", "input": ["model_13/tf.math.multiply_223/Mul", "model_13/tf.nn.convolution_58/convolution/filter", "model_13/tf.math.add_70/Add/y"], "device": "/device:CPU:0", "attr": {"use_cudnn_on_gpu": {"b": true}, "explicit_paddings": {"list": {}}, "padding": {"s": "U0FNRQ=="}, "TArgs": {"list": {"type": ["DT_FLOAT"]}}, "epsilon": {"f": 0.0}, "fused_ops": {"list": {"s": ["Qmlhc0FkZA=="]}}, "num_args": {"i": "1"}, "T": {"type": "DT_FLOAT"}, "data_format": {"s": "TkhXQw=="}, "num_host_args": {"i": "0"}, "dilations": {"list": {"i": ["1", "1", "1", "1"]}}, "strides": {"list": {"i": ["1", "1", "1", "1"]}}, "leakyrelu_alpha": {"f": 0.2}, "filter_format": {"s": "SFdJTw=="}}}, {"name": "model_13/tf.math.sigmoid_53/Sigmoid", "op": "Sigmoid", "input": ["model_13/tf.math.add_69/Add"], "attr": {"T": {"type": "DT_FLOAT"}}}, {"name": "model_13/tf.math.sigmoid_54/Sigmoid", "op": "Sigmoid", "input": ["model_13/tf.math.add_70/Add"], "attr": {"T": {"type": "DT_FLOAT"}}}, {"name": "model_13/tf.math.multiply_227/Mul", "op": "Mul", "input": ["model_13/tf.math.add_69/Add", "model_13/tf.math.sigmoid_53/Sigmoid"], "attr": {"T": {"type": "DT_FLOAT"}}}, {"name": "model_13/tf.math.multiply_231/Mul", "op": "Mul", "input": ["model_13/tf.math.add_70/Add", "model_13/tf.math.sigmoid_54/Sigmoid"], "attr": {"T": {"type": "DT_FLOAT"}}}, {"name": "model_13/tf.math.add_71/Add", "op": "_FusedConv2D", "input": ["model_13/tf.math.multiply_227/Mul", "model_13/tf.nn.convolution_59/convolution/filter", "model_13/tf.math.add_71/Add/y"], "device": "/device:CPU:0", "attr": {"T": {"type": "DT_FLOAT"}, "num_args": {"i": "1"}, "data_format": {"s": "TkhXQw=="}, "explicit_paddings": {"list": {}}, "epsilon": {"f": 0.0}, "dilations": {"list": {"i": ["1", "1", "1", "1"]}}, "filter_format": {"s": "SFdJTw=="}, "strides": {"list": {"i": ["1", "1", "1", "1"]}}, "use_cudnn_on_gpu": {"b": true}, "leakyrelu_alpha": {"f": 0.2}, "num_host_args": {"i": "0"}, "fused_ops": {"list": {"s": ["Qmlhc0FkZA=="]}}, "TArgs": {"list": {"type": ["DT_FLOAT"]}}, "padding": {"s": "U0FNRQ=="}}}, {"name": "model_13/tf.math.add_72/Add", "op": "_FusedConv2D", "input": ["model_13/tf.math.multiply_231/Mul", "model_13/tf.nn.convolution_60/convolution/filter", "model_13/tf.math.add_72/Add/y"], "device": "/device:CPU:0", "attr": {"dilations": {"list": {"i": ["1", "1", "1", "1"]}}, "data_format": {"s": "TkhXQw=="}, "filter_format": {"s": "SFdJTw=="}, "TArgs": {"list": {"type": ["DT_FLOAT"]}}, "explicit_paddings": {"list": {}}, "fused_ops": {"list": {"s": ["Qmlhc0FkZA=="]}}, "num_host_args": {"i": "0"}, "strides": {"list": {"i": ["1", "1", "1", "1"]}}, "padding": {"s": "U0FNRQ=="}, "use_cudnn_on_gpu": {"b": true}, "T": {"type": "DT_FLOAT"}, "leakyrelu_alpha": {"f": 0.2}, "num_args": {"i": "1"}, "epsilon": {"f": 0.0}}}, {"name": "model_13/tf.math.sigmoid_55/Sigmoid", "op": "Sigmoid", "input": ["model_13/tf.math.add_71/Add"], "attr": {"T": {"type": "DT_FLOAT"}}}, {"name": "model_13/tf.math.sigmoid_56/Sigmoid", "op": "Sigmoid", "input": ["model_13/tf.math.add_72/Add"], "attr": {"T": {"type": "DT_FLOAT"}}}, {"name": "model_13/tf.math.multiply_235/Mul", "op": "Mul", "input": ["model_13/tf.math.add_71/Add", "model_13/tf.math.sigmoid_55/Sigmoid"], "attr": {"T": {"type": "DT_FLOAT"}}}, {"name": "model_13/tf.math.multiply_239/Mul", "op": "Mul", "input": ["model_13/tf.math.add_72/Add", "model_13/tf.math.sigmoid_56/Sigmoid"], "attr": {"T": {"type": "DT_FLOAT"}}}, {"name": "model_13/tf.math.add_73/Add", "op": "_FusedConv2D", "input": ["model_13/tf.math.multiply_235/Mul", "model_13/tf.nn.convolution_61/convolution/filter", "model_13/tf.math.add_73/Add/y"], "device": "/device:CPU:0", "attr": {"num_host_args": {"i": "0"}, "num_args": {"i": "1"}, "T": {"type": "DT_FLOAT"}, "data_format": {"s": "TkhXQw=="}, "explicit_paddings": {"list": {}}, "dilations": {"list": {"i": ["1", "1", "1", "1"]}}, "fused_ops": {"list": {"s": ["Qmlhc0FkZA=="]}}, "TArgs": {"list": {"type": ["DT_FLOAT"]}}, "strides": {"list": {"i": ["1", "1", "1", "1"]}}, "epsilon": {"f": 0.0}, "leakyrelu_alpha": {"f": 0.2}, "padding": {"s": "U0FNRQ=="}, "filter_format": {"s": "SFdJTw=="}, "use_cudnn_on_gpu": {"b": true}}}, {"name": "model_13/tf.math.add_74/Add", "op": "_FusedConv2D", "input": ["model_13/tf.math.multiply_239/Mul", "model_13/tf.nn.convolution_62/convolution/filter", "model_13/tf.math.add_74/Add/y"], "device": "/device:CPU:0", "attr": {"padding": {"s": "U0FNRQ=="}, "strides": {"list": {"i": ["1", "1", "1", "1"]}}, "fused_ops": {"list": {"s": ["Qmlhc0FkZA=="]}}, "num_args": {"i": "1"}, "num_host_args": {"i": "0"}, "use_cudnn_on_gpu": {"b": true}, "explicit_paddings": {"list": {}}, "TArgs": {"list": {"type": ["DT_FLOAT"]}}, "filter_format": {"s": "SFdJTw=="}, "epsilon": {"f": 0.0}, "T": {"type": "DT_FLOAT"}, "leakyrelu_alpha": {"f": 0.2}, "data_format": {"s": "TkhXQw=="}, "dilations": {"list": {"i": ["1", "1", "1", "1"]}}}}, {"name": "model_13/tf.concat_15/concat", "op": "ConcatV2", "input": ["model_13/tf.math.add_73/Add", "model_13/tf.math.add_74/Add", "model_13/tf.concat_15/concat/axis"], "attr": {"N": {"i": "2"}, "Tidx": {"type": "DT_INT32"}, "T": {"type": "DT_FLOAT"}}}, {"name": "model_13/tf.compat.v1.transpose_12/transpose", "op": "Transpose", "input": ["model_13/tf.concat_15/concat", "model_13/tf.compat.v1.transpose_12/transpose/perm"], "attr": {"T": {"type": "DT_FLOAT"}, "Tperm": {"type": "DT_INT32"}}}, {"name": "model_13/tf.reshape_8/Reshape", "op": "Reshape", "input": ["model_13/tf.compat.v1.transpose_12/transpose", "model_13/tf.reshape_8/Reshape/shape"], "attr": {"Tshape": {"type": "DT_INT32"}, "T": {"type": "DT_FLOAT"}}}, {"name": "model_13/tf.concat_16/concat", "op": "ConcatV2", "input": ["model_13/tf.reshape_2/Reshape", "model_13/tf.reshape_5/Reshape", "model_13/tf.reshape_8/Reshape", "model_13/tf.concat_16/concat/axis"], "attr": {"T": {"type": "DT_FLOAT"}, "N": {"i": "3"}, "Tidx": {"type": "DT_INT32"}}}, {"name": "model_13/tf.strided_slice_17/StridedSlice", "op": "StridedSlice", "input": ["model_13/tf.concat_16/concat", "model_13/tf.strided_slice_17/StridedSlice/begin", "model_13/tf.strided_slice_17/StridedSlice/end", "model_13/tf.strided_slice_17/StridedSlice/strides"], "attr": {"new_axis_mask": {"i": "0"}, "T": {"type": "DT_FLOAT"}, "shrink_axis_mask": {"i": "0"}, "begin_mask": {"i": "5"}, "Index": {"type": "DT_INT64"}, "end_mask": {"i": "5"}, "ellipsis_mask": {"i": "0"}}}, {"name": "model_13/tf.strided_slice_16/StridedSlice", "op": "StridedSlice", "input": ["model_13/tf.concat_16/concat", "model_13/tf.strided_slice_16/StridedSlice/begin", "model_13/tf.strided_slice_16/StridedSlice/end", "model_13/tf.strided_slice_16/StridedSlice/strides"], "attr": {"T": {"type": "DT_FLOAT"}, "end_mask": {"i": "5"}, "Index": {"type": "DT_INT64"}, "ellipsis_mask": {"i": "0"}, "begin_mask": {"i": "7"}, "new_axis_mask": {"i": "0"}, "shrink_axis_mask": {"i": "0"}}}, {"name": "model_13/tf.math.sigmoid_57/Sigmoid", "op": "Sigmoid", "input": ["model_13/tf.strided_slice_17/StridedSlice"], "attr": {"T": {"type": "DT_FLOAT"}}}, {"name": "model_13/tf.reshape_11/Reshape", "op": "Reshape", "input": ["model_13/tf.strided_slice_16/StridedSlice", "model_13/tf.reshape_11/Reshape/shape"], "attr": {"T": {"type": "DT_FLOAT"}, "Tshape": {"type": "DT_INT32"}}}, {"name": "model_13/tf.compat.v1.transpose_19/transpose", "op": "Transpose", "input": ["model_13/tf.reshape_11/Reshape", "model_13/tf.compat.v1.transpose_19/transpose/perm"], "attr": {"T": {"type": "DT_FLOAT"}, "Tperm": {"type": "DT_INT32"}}}, {"name": "model_13/tf.compat.v1.transpose_20/transpose", "op": "Transpose", "input": ["model_13/tf.compat.v1.transpose_19/transpose", "model_13/tf.compat.v1.transpose_20/transpose/perm"], "attr": {"T": {"type": "DT_FLOAT"}, "Tperm": {"type": "DT_INT32"}}}, {"name": "model_13/tf.nn.softmax/wa/model.22/dfl/Softmax", "op": "Softmax", "input": ["model_13/tf.compat.v1.transpose_20/transpose"], "attr": {"T": {"type": "DT_FLOAT"}}}, {"name": "model_13/tf.nn.convolution_63/convolution", "op": "Conv2D", "input": ["model_13/tf.nn.softmax/wa/model.22/dfl/Softmax", "model_13/tf.nn.convolution_63/convolution/filter"], "device": "/device:CPU:0", "attr": {"dilations": {"list": {"i": ["1", "1", "1", "1"]}}, "data_format": {"s": "TkhXQw=="}, "padding": {"s": "U0FNRQ=="}, "use_cudnn_on_gpu": {"b": true}, "T": {"type": "DT_FLOAT"}, "strides": {"list": {"i": ["1", "1", "1", "1"]}}, "explicit_paddings": {"list": {}}}}, {"name": "model_13/tf.compat.v1.transpose_25/transpose", "op": "Transpose", "input": ["model_13/tf.nn.convolution_63/convolution", "model_13/tf.compat.v1.transpose_25/transpose/perm"], "attr": {"T": {"type": "DT_FLOAT"}, "Tperm": {"type": "DT_INT32"}}}, {"name": "model_13/tf.reshape_14/Reshape", "op": "Reshape", "input": ["model_13/tf.compat.v1.transpose_25/transpose", "model_13/tf.reshape_14/Reshape/shape"], "attr": {"T": {"type": "DT_FLOAT"}, "Tshape": {"type": "DT_INT32"}}}, {"name": "model_13/tf.strided_slice_19/StridedSlice", "op": "StridedSlice", "input": ["model_13/tf.reshape_14/Reshape", "model_13/tf.strided_slice_19/ones_like/tensor", "model_13/tf.strided_slice_19/StridedSlice/end", "model_13/tf.strided_slice_19/ones_like"], "attr": {"end_mask": {"i": "5"}, "begin_mask": {"i": "5"}, "ellipsis_mask": {"i": "0"}, "shrink_axis_mask": {"i": "0"}, "new_axis_mask": {"i": "0"}, "Index": {"type": "DT_INT64"}, "T": {"type": "DT_FLOAT"}}}, {"name": "model_13/tf.strided_slice_18/StridedSlice", "op": "StridedSlice", "input": ["model_13/tf.reshape_14/Reshape", "model_13/tf.strided_slice_18/ones_like/tensor", "model_13/tf.strided_slice_18/StridedSlice/end", "model_13/tf.strided_slice_18/ones_like"], "attr": {"ellipsis_mask": {"i": "0"}, "Index": {"type": "DT_INT64"}, "end_mask": {"i": "5"}, "shrink_axis_mask": {"i": "0"}, "T": {"type": "DT_FLOAT"}, "new_axis_mask": {"i": "0"}, "begin_mask": {"i": "7"}}}, {"name": "model_13/tf.math.add_75/Add", "op": "AddV2", "input": ["model_13/38715", "model_13/tf.strided_slice_19/StridedSlice"], "attr": {"T": {"type": "DT_FLOAT"}}}, {"name": "model_13/tf.math.subtract/Sub", "op": "Sub", "input": ["model_13/38718", "model_13/tf.strided_slice_18/StridedSlice"], "attr": {"T": {"type": "DT_FLOAT"}}}, {"name": "model_13/tf.math.add_76/Add", "op": "AddV2", "input": ["model_13/tf.math.subtract/Sub", "model_13/tf.math.add_75/Add"], "attr": {"T": {"type": "DT_FLOAT"}}}, {"name": "model_13/tf.math.subtract_1/Sub", "op": "Sub", "input": ["model_13/tf.math.add_75/Add", "model_13/tf.math.subtract/Sub"], "attr": {"T": {"type": "DT_FLOAT"}}}, {"name": "model_13/tf.math.divide/truediv", "op": "Mul", "input": ["model_13/tf.math.add_76/Add", "ConstantFolding/model_13/tf.math.divide/truediv_recip"], "attr": {"T": {"type": "DT_FLOAT"}}}, {"name": "model_13/tf.concat_20/concat", "op": "ConcatV2", "input": ["model_13/tf.math.divide/truediv", "model_13/tf.math.subtract_1/Sub", "model_13/tf.concat_20/concat/axis"], "attr": {"N": {"i": "2"}, "T": {"type": "DT_FLOAT"}, "Tidx": {"type": "DT_INT32"}}}, {"name": "model_13/tf.math.multiply_252/Mul", "op": "Mul", "input": ["model_13/tf.concat_20/concat", "model_13/tf.math.multiply_252/Mul/y"], "attr": {"T": {"type": "DT_FLOAT"}}}, {"name": "model_13/output0/concat", "op": "ConcatV2", "input": ["model_13/tf.math.multiply_252/Mul", "model_13/tf.math.sigmoid_57/Sigmoid", "model_13/output0/concat/axis"], "attr": {"N": {"i": "2"}, "Tidx": {"type": "DT_INT32"}, "T": {"type": "DT_FLOAT"}}}, {"name": "Identity", "op": "Identity", "input": ["model_13/output0/concat"], "attr": {"T": {"type": "DT_FLOAT"}}}], "library": {}, "versions": {"producer": 1994}}, "weightsManifest": [{"paths": ["group1-shard1of1.bin"], "weights": [{"name": "ConstantFolding/model_13/tf.math.divide/truediv_recip", "shape": [1, 1, 1], "dtype": "float32", "quantization": {"dtype": "uint8", "min": 0.5, "scale": 1.0, "original_dtype": "float32"}}, {"name": "model_13/38715", "shape": [1, 2, 8400], "dtype": "float32", "quantization": {"dtype": "uint8", "min": 0.5, "scale": 0.30980392156862746, "original_dtype": "float32"}}, {"name": "model_13/tf.strided_slice_19/ones_like/tensor", "shape": [3], "dtype": "int32"}, {"name": "model_13/tf.strided_slice_19/StridedSlice/end", "shape": [3], "dtype": "int32"}, {"name": "model_13/tf.strided_slice_19/ones_like", "shape": [3], "dtype": "int32"}, {"name": "model_13/38718", "shape": [1, 2, 8400], "dtype": "float32", "quantization": {"dtype": "uint8", "min": 0.5, "scale": 0.30980392156862746, "original_dtype": "float32"}}, {"name": "model_13/tf.strided_slice_16/StridedSlice/begin", "shape": [3], "dtype": "int32"}, {"name": "model_13/tf.strided_slice_16/StridedSlice/end", "shape": [3], "dtype": "int32"}, {"name": "model_13/tf.strided_slice_16/StridedSlice/strides", "shape": [3], "dtype": "int32"}, {"name": "model_13/tf.reshape_11/Reshape/shape", "shape": [4], "dtype": "int32"}, {"name": "model_13/tf.compat.v1.transpose_19/transpose/perm", "shape": [4], "dtype": "int32"}, {"name": "model_13/tf.compat.v1.transpose_20/transpose/perm", "shape": [4], "dtype": "int32"}, {"name": "model_13/tf.nn.convolution_63/convolution/filter", "shape": [1, 1, 16, 1], "dtype": "float32", "quantization": {"dtype": "uint8", "min": -0.0, "scale": 0.058823529411764705, "original_dtype": "float32"}}, {"name": "model_13/tf.compat.v1.transpose_25/transpose/perm", "shape": [4], "dtype": "int32"}, {"name": "model_13/tf.reshape_14/Reshape/shape", "shape": [3], "dtype": "int32"}, {"name": "model_13/tf.strided_slice_18/ones_like/tensor", "shape": [3], "dtype": "int32"}, {"name": "model_13/tf.strided_slice_18/StridedSlice/end", "shape": [3], "dtype": "int32"}, {"name": "model_13/tf.strided_slice_18/ones_like", "shape": [3], "dtype": "int32"}, {"name": "model_13/tf.concat_20/concat/axis", "shape": [], "dtype": "int32"}, {"name": "model_13/tf.math.multiply_252/Mul/y", "shape": [1, 1, 8400], "dtype": "float32", "quantization": {"dtype": "uint8", "min": 8.0, "scale": 0.09411764705882353, "original_dtype": "float32"}}, {"name": "model_13/tf.nn.convolution_36/convolution/filter", "shape": [3, 3, 64, 64], "dtype": "float32", "quantization": {"dtype": "uint8", "min": -0.14456183723374907, "scale": 0.0011849330920799105, "original_dtype": "float32"}}, {"name": "model_13/tf.math.add_48/Add/y", "shape": [64], "dtype": "float32", "quantization": {"dtype": "uint8", "min": -0.754123482984655, "scale": 0.008022590244517607, "original_dtype": "float32"}}, {"name": "model_13/tf.nn.convolution_38/convolution/filter", "shape": [3, 3, 64, 64], "dtype": "float32", "quantization": {"dtype": "uint8", "min": -0.13251991271972657, "scale": 0.0010773976643880208, "original_dtype": "float32"}}, {"name": "model_13/tf.math.add_50/Add/y", "shape": [64], "dtype": "float32", "quantization": {"dtype": "uint8", "min": -0.44401824789888716, "scale": 0.005481706764183792, "original_dtype": "float32"}}, {"name": "model_13/tf.nn.convolution_41/convolution/filter", "shape": [1, 1, 64, 64], "dtype": "float32", "quantization": {"dtype": "uint8", "min": -0.21563361672794118, "scale": 0.0017113779105392157, "original_dtype": "float32"}}, {"name": "model_13/tf.math.add_53/Add/y", "shape": [64], "dtype": "float32", "quantization": {"dtype": "uint8", "min": 0.94189453125, "scale": 0.00048828125, "original_dtype": "float32"}}, {"name": "model_13/tf.nn.convolution_37/convolution/filter", "shape": [3, 3, 64, 64], "dtype": "float32", "quantization": {"dtype": "uint8", "min": -0.1152119352537043, "scale": 0.0009291285101105185, "original_dtype": "float32"}}, {"name": "model_13/tf.math.add_49/Add/y", "shape": [64], "dtype": "float32", "quantization": {"dtype": "uint8", "min": -0.5411539323189679, "scale": 0.005153846974466361, "original_dtype": "float32"}}, {"name": "model_13/tf.nn.convolution_39/convolution/filter", "shape": [3, 3, 64, 64], "dtype": "float32", "quantization": {"dtype": "uint8", "min": -0.10104041239794563, "scale": 0.000842003436649547, "original_dtype": "float32"}}, {"name": "model_13/tf.math.add_51/Add/y", "shape": [64], "dtype": "float32", "quantization": {"dtype": "uint8", "min": -0.7431209634332097, "scale": 0.009062450773575727, "original_dtype": "float32"}}, {"name": "model_13/tf.nn.convolution_42/convolution/filter", "shape": [1, 1, 64, 2], "dtype": "float32", "quantization": {"dtype": "uint8", "min": -0.2758669385723039, "scale": 0.0014911726409313725, "original_dtype": "float32"}}, {"name": "model_13/tf.math.add_54/Add/y", "shape": [2], "dtype": "float32", "quantization": {"dtype": "uint8", "min": -7.98046875, "scale": 6.127450980392157e-05, "original_dtype": "float32"}}, {"name": "model_13/tf.concat_10/concat/axis", "shape": [], "dtype": "int32"}, {"name": "model_13/tf.compat.v1.transpose_2/transpose/perm", "shape": [4], "dtype": "int32"}, {"name": "model_13/tf.reshape_2/Reshape/shape", "shape": [3], "dtype": "int32"}, {"name": "model_13/tf.nn.convolution_47/convolution/filter", "shape": [3, 3, 128, 64], "dtype": "float32", "quantization": {"dtype": "uint8", "min": -0.07738053424685609, "scale": 0.0006908976272040722, "original_dtype": "float32"}}, {"name": "model_13/tf.math.add_59/Add/y", "shape": [64], "dtype": "float32", "quantization": {"dtype": "uint8", "min": -0.6067271968897651, "scale": 0.005670347634483786, "original_dtype": "float32"}}, {"name": "model_13/tf.nn.convolution_49/convolution/filter", "shape": [3, 3, 64, 64], "dtype": "float32", "quantization": {"dtype": "uint8", "min": -0.14235432346661886, "scale": 0.0011962548190472173, "original_dtype": "float32"}}, {"name": "model_13/tf.math.add_61/Add/y", "shape": [64], "dtype": "float32", "quantization": {"dtype": "uint8", "min": -0.6381759082569796, "scale": 0.007977198853212245, "original_dtype": "float32"}}, {"name": "model_13/tf.nn.convolution_52/convolution/filter", "shape": [1, 1, 64, 64], "dtype": "float32", "quantization": {"dtype": "uint8", "min": -0.24069680606617647, "scale": 0.0017070695465686275, "original_dtype": "float32"}}, {"name": "model_13/tf.math.add_64/Add/y", "shape": [64], "dtype": "float32", "quantization": {"dtype": "uint8", "min": 0.95361328125, "scale": 0.00033892463235294116, "original_dtype": "float32"}}, {"name": "model_13/tf.nn.convolution_48/convolution/filter", "shape": [3, 3, 128, 64], "dtype": "float32", "quantization": {"dtype": "uint8", "min": -0.08747531833017573, "scale": 0.0007476522934203054, "original_dtype": "float32"}}, {"name": "model_13/tf.math.add_60/Add/y", "shape": [64], "dtype": "float32", "quantization": {"dtype": "uint8", "min": -0.839540414950427, "scale": 0.007429561194251566, "original_dtype": "float32"}}, {"name": "model_13/tf.nn.convolution_50/convolution/filter", "shape": [3, 3, 64, 64], "dtype": "float32", "quantization": {"dtype": "uint8", "min": -0.12667230905271046, "scale": 0.0010734941445144953, "original_dtype": "float32"}}, {"name": "model_13/tf.math.add_62/Add/y", "shape": [64], "dtype": "float32", "quantization": {"dtype": "uint8", "min": -0.8320942165804844, "scale": 0.008578290892582314, "original_dtype": "float32"}}, {"name": "model_13/tf.nn.convolution_53/convolution/filter", "shape": [1, 1, 64, 2], "dtype": "float32", "quantization": {"dtype": "uint8", "min": -0.28983872357536766, "scale": 0.0015335382199754902, "original_dtype": "float32"}}, {"name": "model_13/tf.math.add_65/Add/y", "shape": [2], "dtype": "float32", "quantization": {"dtype": "uint8", "min": -6.609375, "scale": 7.659313725490196e-05, "original_dtype": "float32"}}, {"name": "model_13/tf.concat_13/concat/axis", "shape": [], "dtype": "int32"}, {"name": "model_13/tf.compat.v1.transpose_7/transpose/perm", "shape": [4], "dtype": "int32"}, {"name": "model_13/tf.reshape_5/Reshape/shape", "shape": [3], "dtype": "int32"}, {"name": "model_13/tf.nn.convolution_57/convolution/filter", "shape": [3, 3, 256, 64], "dtype": "float32", "quantization": {"dtype": "uint8", "min": -0.04622658635763561, "scale": 0.00035287470502011914, "original_dtype": "float32"}}, {"name": "model_13/tf.math.add_69/Add/y", "shape": [64], "dtype": "float32", "quantization": {"dtype": "uint8", "min": -0.6689797896964877, "scale": 0.006689797896964877, "original_dtype": "float32"}}, {"name": "model_13/tf.nn.convolution_59/convolution/filter", "shape": [3, 3, 64, 64], "dtype": "float32", "quantization": {"dtype": "uint8", "min": -0.12712817542693194, "scale": 0.0010959325467838961, "original_dtype": "float32"}}, {"name": "model_13/tf.math.add_71/Add/y", "shape": [64], "dtype": "float32", "quantization": {"dtype": "uint8", "min": -0.34115003230525, "scale": 0.0025458957634720146, "original_dtype": "float32"}}, {"name": "model_13/tf.nn.convolution_61/convolution/filter", "shape": [1, 1, 64, 64], "dtype": "float32", "quantization": {"dtype": "uint8", "min": -0.20669232536764706, "scale": 0.001565850949754902, "original_dtype": "float32"}}, {"name": "model_13/tf.math.add_73/Add/y", "shape": [64], "dtype": "float32", "quantization": {"dtype": "uint8", "min": 0.9580078125, "scale": 0.00034849877450980393, "original_dtype": "float32"}}, {"name": "model_13/tf.strided_slice_14/ones_like/tensor", "shape": [4], "dtype": "int32"}, {"name": "model_13/tf.strided_slice_14/StridedSlice/end", "shape": [4], "dtype": "int32"}, {"name": "model_13/tf.strided_slice_14/ones_like", "shape": [4], "dtype": "int32"}, {"name": "model_13/tf.strided_slice_12/ones_like/tensor", "shape": [4], "dtype": "int32"}, {"name": "model_13/tf.strided_slice_12/StridedSlice/end", "shape": [4], "dtype": "int32"}, {"name": "model_13/tf.strided_slice_12/ones_like", "shape": [4], "dtype": "int32"}, {"name": "model_13/tf.strided_slice_10/ones_like/tensor", "shape": [4], "dtype": "int32"}, {"name": "model_13/tf.strided_slice_10/StridedSlice/end", "shape": [4], "dtype": "int32"}, {"name": "model_13/tf.strided_slice_10/ones_like", "shape": [4], "dtype": "int32"}, {"name": "model_13/tf.image.resize_1/resize/size", "shape": [2], "dtype": "int32"}, {"name": "model_13/tf.concat_7/concat/axis", "shape": [], "dtype": "int32"}, {"name": "model_13/tf.nn.convolution_31/convolution/filter", "shape": [1, 1, 192, 64], "dtype": "float32", "quantization": {"dtype": "uint8", "min": -0.28627554727535626, "scale": 0.002152447723874859, "original_dtype": "float32"}}, {"name": "model_13/tf.math.add_43/Add/y", "shape": [64], "dtype": "float32", "quantization": {"dtype": "uint8", "min": -0.7109167108348772, "scale": 0.005827186154384239, "original_dtype": "float32"}}, {"name": "model_13/tf.strided_slice_11/ones_like/tensor", "shape": [4], "dtype": "int32"}, {"name": "model_13/tf.strided_slice_11/StridedSlice/end", "shape": [4], "dtype": "int32"}, {"name": "model_13/tf.strided_slice_11/ones_like", "shape": [4], "dtype": "int32"}, {"name": "model_13/tf.nn.convolution_32/convolution/filter", "shape": [3, 3, 32, 32], "dtype": "float32", "quantization": {"dtype": "uint8", "min": -0.20679084980020335, "scale": 0.0017090152876049864, "original_dtype": "float32"}}, {"name": "model_13/tf.math.add_44/Add/y", "shape": [32], "dtype": "float32", "quantization": {"dtype": "uint8", "min": -1.0935293412676046, "scale": 0.008411764163596958, "original_dtype": "float32"}}, {"name": "model_13/tf.nn.convolution_33/convolution/filter", "shape": [3, 3, 32, 32], "dtype": "float32", "quantization": {"dtype": "uint8", "min": -0.26384034554163616, "scale": 0.0022171457608540853, "original_dtype": "float32"}}, {"name": "model_13/tf.math.add_45/Add/y", "shape": [32], "dtype": "float32", "quantization": {"dtype": "uint8", "min": -0.4662973918166815, "scale": 0.006135491997587915, "original_dtype": "float32"}}, {"name": "model_13/tf.concat_8/concat/axis", "shape": [], "dtype": "int32"}, {"name": "model_13/tf.nn.convolution_34/convolution/filter", "shape": [1, 1, 96, 64], "dtype": "float32", "quantization": {"dtype": "uint8", "min": -0.48220094161875104, "scale": 0.003826991600148818, "original_dtype": "float32"}}, {"name": "model_13/tf.math.add_46/Add/y", "shape": [64], "dtype": "float32", "quantization": {"dtype": "uint8", "min": -0.6068487983123928, "scale": 0.005671484096377503, "original_dtype": "float32"}}, {"name": "model_13/tf.compat.v1.pad_5/Pad/paddings", "shape": [4, 2], "dtype": "int32"}, {"name": "model_13/tf.nn.convolution_35/convolution/filter", "shape": [3, 3, 64, 64], "dtype": "float32", "quantization": {"dtype": "uint8", "min": -0.13096945934435902, "scale": 0.0010152671267004575, "original_dtype": "float32"}}, {"name": "model_13/tf.math.add_47/Add/y", "shape": [64], "dtype": "float32", "quantization": {"dtype": "uint8", "min": -0.637490104226505, "scale": 0.005312417535220875, "original_dtype": "float32"}}, {"name": "model_13/tf.strided_slice_8/ones_like/tensor", "shape": [4], "dtype": "int32"}, {"name": "model_13/tf.strided_slice_8/StridedSlice/end", "shape": [4], "dtype": "int32"}, {"name": "model_13/tf.strided_slice_8/ones_like", "shape": [4], "dtype": "int32"}, {"name": "model_13/tf.image.resize/resize/size", "shape": [2], "dtype": "int32"}, {"name": "model_13/tf.concat_5/concat/axis", "shape": [], "dtype": "int32"}, {"name": "model_13/tf.nn.convolution_27/convolution/filter", "shape": [1, 1, 384, 128], "dtype": "float32", "quantization": {"dtype": "uint8", "min": -0.24983393362924164, "scale": 0.001907129264345356, "original_dtype": "float32"}}, {"name": "model_13/tf.math.add_39/Add/y", "shape": [128], "dtype": "float32", "quantization": {"dtype": "uint8", "min": -1.0305543581644694, "scale": 0.007577605574738746, "original_dtype": "float32"}}, {"name": "model_13/tf.strided_slice_9/ones_like/tensor", "shape": [4], "dtype": "int32"}, {"name": "model_13/tf.strided_slice_9/StridedSlice/end", "shape": [4], "dtype": "int32"}, {"name": "model_13/tf.strided_slice_9/ones_like", "shape": [4], "dtype": "int32"}, {"name": "model_13/tf.nn.convolution_28/convolution/filter", "shape": [3, 3, 64, 64], "dtype": "float32", "quantization": {"dtype": "uint8", "min": -0.16070973049191867, "scale": 0.0013281795908423031, "original_dtype": "float32"}}, {"name": "model_13/tf.math.add_40/Add/y", "shape": [64], "dtype": "float32", "quantization": {"dtype": "uint8", "min": -0.6981772665883981, "scale": 0.006233725594539268, "original_dtype": "float32"}}, {"name": "model_13/tf.nn.convolution_29/convolution/filter", "shape": [3, 3, 64, 64], "dtype": "float32", "quantization": {"dtype": "uint8", "min": -0.14234570463498433, "scale": 0.001206319530804952, "original_dtype": "float32"}}, {"name": "model_13/tf.math.add_41/Add/y", "shape": [64], "dtype": "float32", "quantization": {"dtype": "uint8", "min": -0.6275028020727867, "scale": 0.0062128990304236315, "original_dtype": "float32"}}, {"name": "model_13/tf.concat_6/concat/axis", "shape": [], "dtype": "int32"}, {"name": "model_13/tf.nn.convolution_30/convolution/filter", "shape": [1, 1, 192, 128], "dtype": "float32", "quantization": {"dtype": "uint8", "min": -0.3068980311646181, "scale": 0.0024951059444277895, "original_dtype": "float32"}}, {"name": "model_13/tf.math.add_42/Add/y", "shape": [128], "dtype": "float32", "quantization": {"dtype": "uint8", "min": -0.6912829413133509, "scale": 0.006227774246066224, "original_dtype": "float32"}}, {"name": "model_13/tf.concat_9/concat/axis", "shape": [], "dtype": "int32"}, {"name": "model_13/tf.nn.convolution_40/convolution/filter", "shape": [1, 1, 192, 128], "dtype": "float32", "quantization": {"dtype": "uint8", "min": -0.2734990221612594, "scale": 0.0024639551546059403, "original_dtype": "float32"}}, {"name": "model_13/tf.math.add_52/Add/y", "shape": [128], "dtype": "float32", "quantization": {"dtype": "uint8", "min": -0.6214863996879727, "scale": 0.005649876360799752, "original_dtype": "float32"}}, {"name": "model_13/tf.strided_slice_13/ones_like/tensor", "shape": [4], "dtype": "int32"}, {"name": "model_13/tf.strided_slice_13/StridedSlice/end", "shape": [4], "dtype": "int32"}, {"name": "model_13/tf.strided_slice_13/ones_like", "shape": [4], "dtype": "int32"}, {"name": "model_13/tf.nn.convolution_43/convolution/filter", "shape": [3, 3, 64, 64], "dtype": "float32", "quantization": {"dtype": "uint8", "min": -0.15185068109456232, "scale": 0.0010846477221040166, "original_dtype": "float32"}}, {"name": "model_13/tf.math.add_55/Add/y", "shape": [64], "dtype": "float32", "quantization": {"dtype": "uint8", "min": -0.5973625786164227, "scale": 0.004740972846162085, "original_dtype": "float32"}}, {"name": "model_13/tf.nn.convolution_44/convolution/filter", "shape": [3, 3, 64, 64], "dtype": "float32", "quantization": {"dtype": "uint8", "min": -0.1457065015446906, "scale": 0.0013745896372140622, "original_dtype": "float32"}}, {"name": "model_13/tf.math.add_56/Add/y", "shape": [64], "dtype": "float32", "quantization": {"dtype": "uint8", "min": -0.523889379641589, "scale": 0.004719724140915216, "original_dtype": "float32"}}, {"name": "model_13/tf.concat_11/concat/axis", "shape": [], "dtype": "int32"}, {"name": "model_13/tf.nn.convolution_45/convolution/filter", "shape": [1, 1, 192, 128], "dtype": "float32", "quantization": {"dtype": "uint8", "min": -0.3318730588052787, "scale": 0.002476664617949841, "original_dtype": "float32"}}, {"name": "model_13/tf.math.add_57/Add/y", "shape": [128], "dtype": "float32", "quantization": {"dtype": "uint8", "min": -0.8443396054062189, "scale": 0.005704997333825804, "original_dtype": "float32"}}, {"name": "model_13/tf.compat.v1.pad_6/Pad/paddings", "shape": [4, 2], "dtype": "int32"}, {"name": "model_13/tf.nn.convolution_46/convolution/filter", "shape": [3, 3, 128, 128], "dtype": "float32", "quantization": {"dtype": "uint8", "min": -0.07039783994356791, "scale": 0.0006229897340138753, "original_dtype": "float32"}}, {"name": "model_13/tf.math.add_58/Add/y", "shape": [128], "dtype": "float32", "quantization": {"dtype": "uint8", "min": -0.7825248916943868, "scale": 0.00657583942600325, "original_dtype": "float32"}}, {"name": "model_13/tf.strided_slice_6/ones_like/tensor", "shape": [4], "dtype": "int32"}, {"name": "model_13/tf.strided_slice_6/StridedSlice/end", "shape": [4], "dtype": "int32"}, {"name": "model_13/tf.strided_slice_6/ones_like", "shape": [4], "dtype": "int32"}, {"name": "model_13/tf.strided_slice_4/ones_like/tensor", "shape": [4], "dtype": "int32"}, {"name": "model_13/tf.strided_slice_4/StridedSlice/end", "shape": [4], "dtype": "int32"}, {"name": "model_13/tf.strided_slice_4/ones_like", "shape": [4], "dtype": "int32"}, {"name": "model_13/tf.strided_slice_2/ones_like/tensor", "shape": [4], "dtype": "int32"}, {"name": "model_13/tf.strided_slice_2/StridedSlice/end", "shape": [4], "dtype": "int32"}, {"name": "model_13/tf.strided_slice_2/ones_like", "shape": [4], "dtype": "int32"}, {"name": "model_13/tf.strided_slice/ones_like/tensor", "shape": [4], "dtype": "int32"}, {"name": "model_13/tf.strided_slice/StridedSlice/end", "shape": [4], "dtype": "int32"}, {"name": "model_13/tf.strided_slice/ones_like", "shape": [4], "dtype": "int32"}, {"name": "model_13/tf.compat.v1.pad/Pad/paddings", "shape": [4, 2], "dtype": "int32"}, {"name": "model_13/tf.nn.convolution/convolution/filter", "shape": [3, 3, 3, 16], "dtype": "float32", "quantization": {"dtype": "uint8", "min": -3.765980285756728, "scale": 0.030127842286053825, "original_dtype": "float32"}}, {"name": "model_13/tf.math.add/Add/y", "shape": [16], "dtype": "float32", "quantization": {"dtype": "uint8", "min": -2.255316743663713, "scale": 0.016109405311883665, "original_dtype": "float32"}}, {"name": "model_13/tf.compat.v1.pad_1/Pad/paddings", "shape": [4, 2], "dtype": "int32"}, {"name": "model_13/tf.nn.convolution_1/convolution/filter", "shape": [3, 3, 16, 32], "dtype": "float32", "quantization": {"dtype": "uint8", "min": -0.6607481395497042, "scale": 0.005005667723861395, "original_dtype": "float32"}}, {"name": "model_13/tf.math.add_1/Add/y", "shape": [32], "dtype": "float32", "quantization": {"dtype": "uint8", "min": -0.39974402119131647, "scale": 0.00475885739513472, "original_dtype": "float32"}}, {"name": "model_13/tf.nn.convolution_2/convolution/filter", "shape": [1, 1, 32, 32], "dtype": "float32", "quantization": {"dtype": "uint8", "min": -0.8351010995752671, "scale": 0.006326523481630811, "original_dtype": "float32"}}, {"name": "model_13/tf.math.add_2/Add/y", "shape": [32], "dtype": "float32", "quantization": {"dtype": "uint8", "min": -0.7336219070004482, "scale": 0.004500747895708271, "original_dtype": "float32"}}, {"name": "model_13/tf.strided_slice_1/ones_like/tensor", "shape": [4], "dtype": "int32"}, {"name": "model_13/tf.strided_slice_1/StridedSlice/end", "shape": [4], "dtype": "int32"}, {"name": "model_13/tf.strided_slice_1/ones_like", "shape": [4], "dtype": "int32"}, {"name": "model_13/tf.nn.convolution_3/convolution/filter", "shape": [3, 3, 16, 16], "dtype": "float32", "quantization": {"dtype": "uint8", "min": -0.44254338636117824, "scale": 0.003327393882414874, "original_dtype": "float32"}}, {"name": "model_13/tf.math.add_3/Add/y", "shape": [16], "dtype": "float32", "quantization": {"dtype": "uint8", "min": -0.3312629443757674, "scale": 0.0031548851845311183, "original_dtype": "float32"}}, {"name": "model_13/tf.nn.convolution_4/convolution/filter", "shape": [3, 3, 16, 16], "dtype": "float32", "quantization": {"dtype": "uint8", "min": -0.42854146302915086, "scale": 0.0029967934477562997, "original_dtype": "float32"}}, {"name": "model_13/tf.math.add_4/Add/y", "shape": [16], "dtype": "float32", "quantization": {"dtype": "uint8", "min": -0.6369563573715733, "scale": 0.004454240261339674, "original_dtype": "float32"}}, {"name": "model_13/tf.concat/concat/axis", "shape": [], "dtype": "int32"}, {"name": "model_13/tf.nn.convolution_5/convolution/filter", "shape": [1, 1, 48, 32], "dtype": "float32", "quantization": {"dtype": "uint8", "min": -0.49287857962589643, "scale": 0.003943028637007171, "original_dtype": "float32"}}, {"name": "model_13/tf.math.add_7/Add/y", "shape": [32], "dtype": "float32", "quantization": {"dtype": "uint8", "min": -0.5530032354242661, "scale": 0.004007269821914972, "original_dtype": "float32"}}, {"name": "model_13/tf.compat.v1.pad_2/Pad/paddings", "shape": [4, 2], "dtype": "int32"}, {"name": "model_13/tf.nn.convolution_6/convolution/filter", "shape": [3, 3, 32, 64], "dtype": "float32", "quantization": {"dtype": "uint8", "min": -0.2586126835907207, "scale": 0.0019893283353132362, "original_dtype": "float32"}}, {"name": "model_13/tf.math.add_8/Add/y", "shape": [64], "dtype": "float32", "quantization": {"dtype": "uint8", "min": -0.5592971897592732, "scale": 0.0052270765398062915, "original_dtype": "float32"}}, {"name": "model_13/tf.nn.convolution_7/convolution/filter", "shape": [1, 1, 64, 64], "dtype": "float32", "quantization": {"dtype": "uint8", "min": -0.5241985545438879, "scale": 0.004095301207374124, "original_dtype": "float32"}}, {"name": "model_13/tf.math.add_9/Add/y", "shape": [64], "dtype": "float32", "quantization": {"dtype": "uint8", "min": -0.3905549507515103, "scale": 0.0037553360649183686, "original_dtype": "float32"}}, {"name": "model_13/tf.strided_slice_3/ones_like/tensor", "shape": [4], "dtype": "int32"}, {"name": "model_13/tf.strided_slice_3/StridedSlice/end", "shape": [4], "dtype": "int32"}, {"name": "model_13/tf.strided_slice_3/ones_like", "shape": [4], "dtype": "int32"}, {"name": "model_13/tf.nn.convolution_8/convolution/filter", "shape": [3, 3, 32, 32], "dtype": "float32", "quantization": {"dtype": "uint8", "min": -0.3398242557750029, "scale": 0.0024624946070652383, "original_dtype": "float32"}}, {"name": "model_13/tf.math.add_10/Add/y", "shape": [32], "dtype": "float32", "quantization": {"dtype": "uint8", "min": -0.6203709373287126, "scale": 0.00954416826659558, "original_dtype": "float32"}}, {"name": "model_13/tf.nn.convolution_9/convolution/filter", "shape": [3, 3, 32, 32], "dtype": "float32", "quantization": {"dtype": "uint8", "min": -0.23998113812184801, "scale": 0.0018319170848996032, "original_dtype": "float32"}}, {"name": "model_13/tf.math.add_11/Add/y", "shape": [32], "dtype": "float32", "quantization": {"dtype": "uint8", "min": -0.49818918704986576, "scale": 0.005415099859237671, "original_dtype": "float32"}}, {"name": "model_13/tf.nn.convolution_10/convolution/filter", "shape": [3, 3, 32, 32], "dtype": "float32", "quantization": {"dtype": "uint8", "min": -0.22040656349238227, "scale": 0.001708578011568855, "original_dtype": "float32"}}, {"name": "model_13/tf.math.add_14/Add/y", "shape": [32], "dtype": "float32", "quantization": {"dtype": "uint8", "min": -1.157654882879818, "scale": 0.009187737165712842, "original_dtype": "float32"}}, {"name": "model_13/tf.nn.convolution_11/convolution/filter", "shape": [3, 3, 32, 32], "dtype": "float32", "quantization": {"dtype": "uint8", "min": -0.23480089225021064, "scale": 0.0020964365379483093, "original_dtype": "float32"}}, {"name": "model_13/tf.math.add_15/Add/y", "shape": [32], "dtype": "float32", "quantization": {"dtype": "uint8", "min": -0.9110402303583482, "scale": 0.006197552587471756, "original_dtype": "float32"}}, {"name": "model_13/tf.concat_1/concat/axis", "shape": [], "dtype": "int32"}, {"name": "model_13/tf.nn.convolution_12/convolution/filter", "shape": [1, 1, 128, 64], "dtype": "float32", "quantization": {"dtype": "uint8", "min": -0.2770053152944527, "scale": 0.00223391383301978, "original_dtype": "float32"}}, {"name": "model_13/tf.math.add_18/Add/y", "shape": [64], "dtype": "float32", "quantization": {"dtype": "uint8", "min": -0.8118501165333917, "scale": 0.008545790700351491, "original_dtype": "float32"}}, {"name": "model_13/tf.compat.v1.pad_3/Pad/paddings", "shape": [4, 2], "dtype": "int32"}, {"name": "model_13/tf.nn.convolution_13/convolution/filter", "shape": [3, 3, 64, 128], "dtype": "float32", "quantization": {"dtype": "uint8", "min": -0.18189198339686674, "scale": 0.0014668708338456996, "original_dtype": "float32"}}, {"name": "model_13/tf.math.add_19/Add/y", "shape": [128], "dtype": "float32", "quantization": {"dtype": "uint8", "min": -1.0603624063379624, "scale": 0.008415574653475892, "original_dtype": "float32"}}, {"name": "model_13/tf.nn.convolution_14/convolution/filter", "shape": [1, 1, 128, 128], "dtype": "float32", "quantization": {"dtype": "uint8", "min": -0.4995398723611644, "scale": 0.0037559388899335673, "original_dtype": "float32"}}, {"name": "model_13/tf.math.add_20/Add/y", "shape": [128], "dtype": "float32", "quantization": {"dtype": "uint8", "min": -0.8341761458153818, "scale": 0.006225195118025237, "original_dtype": "float32"}}, {"name": "model_13/tf.strided_slice_5/ones_like/tensor", "shape": [4], "dtype": "int32"}, {"name": "model_13/tf.strided_slice_5/StridedSlice/end", "shape": [4], "dtype": "int32"}, {"name": "model_13/tf.strided_slice_5/ones_like", "shape": [4], "dtype": "int32"}, {"name": "model_13/tf.nn.convolution_15/convolution/filter", "shape": [3, 3, 64, 64], "dtype": "float32", "quantization": {"dtype": "uint8", "min": -0.17936377893475927, "scale": 0.001390416890967126, "original_dtype": "float32"}}, {"name": "model_13/tf.math.add_21/Add/y", "shape": [64], "dtype": "float32", "quantization": {"dtype": "uint8", "min": -0.7761337672962861, "scale": 0.006992196101768344, "original_dtype": "float32"}}, {"name": "model_13/tf.nn.convolution_16/convolution/filter", "shape": [3, 3, 64, 64], "dtype": "float32", "quantization": {"dtype": "uint8", "min": -0.2075744980690526, "scale": 0.0015490634184257657, "original_dtype": "float32"}}, {"name": "model_13/tf.math.add_22/Add/y", "shape": [64], "dtype": "float32", "quantization": {"dtype": "uint8", "min": -0.5653785256778493, "scale": 0.007067231570973116, "original_dtype": "float32"}}, {"name": "model_13/tf.nn.convolution_17/convolution/filter", "shape": [3, 3, 64, 64], "dtype": "float32", "quantization": {"dtype": "uint8", "min": -0.13882418046979345, "scale": 0.001128651873738158, "original_dtype": "float32"}}, {"name": "model_13/tf.math.add_25/Add/y", "shape": [64], "dtype": "float32", "quantization": {"dtype": "uint8", "min": -0.7492884107664519, "scale": 0.007971153306026085, "original_dtype": "float32"}}, {"name": "model_13/tf.nn.convolution_18/convolution/filter", "shape": [3, 3, 64, 64], "dtype": "float32", "quantization": {"dtype": "uint8", "min": -0.2232976135085611, "scale": 0.0018154277521021227, "original_dtype": "float32"}}, {"name": "model_13/tf.math.add_26/Add/y", "shape": [64], "dtype": "float32", "quantization": {"dtype": "uint8", "min": -0.793463996812409, "scale": 0.00793463996812409, "original_dtype": "float32"}}, {"name": "model_13/tf.concat_2/concat/axis", "shape": [], "dtype": "int32"}, {"name": "model_13/tf.nn.convolution_19/convolution/filter", "shape": [1, 1, 256, 128], "dtype": "float32", "quantization": {"dtype": "uint8", "min": -0.21487313859602986, "scale": 0.0016278268075456807, "original_dtype": "float32"}}, {"name": "model_13/tf.math.add_29/Add/y", "shape": [128], "dtype": "float32", "quantization": {"dtype": "uint8", "min": -0.9079618271659403, "scale": 0.008565677614773021, "original_dtype": "float32"}}, {"name": "model_13/tf.compat.v1.pad_4/Pad/paddings", "shape": [4, 2], "dtype": "int32"}, {"name": "model_13/tf.nn.convolution_20/convolution/filter", "shape": [3, 3, 128, 256], "dtype": "float32", "quantization": {"dtype": "uint8", "min": -0.09803307535601598, "scale": 0.0007905893173872256, "original_dtype": "float32"}}, {"name": "model_13/tf.math.add_30/Add/y", "shape": [256], "dtype": "float32", "quantization": {"dtype": "uint8", "min": -1.1671263231950648, "scale": 0.0105146515603159, "original_dtype": "float32"}}, {"name": "model_13/tf.nn.convolution_21/convolution/filter", "shape": [1, 1, 256, 256], "dtype": "float32", "quantization": {"dtype": "uint8", "min": -0.3016971892001582, "scale": 0.0024330418483883725, "original_dtype": "float32"}}, {"name": "model_13/tf.math.add_31/Add/y", "shape": [256], "dtype": "float32", "quantization": {"dtype": "uint8", "min": -0.8200193720705369, "scale": 0.006666824163175097, "original_dtype": "float32"}}, {"name": "model_13/tf.strided_slice_7/ones_like/tensor", "shape": [4], "dtype": "int32"}, {"name": "model_13/tf.strided_slice_7/StridedSlice/end", "shape": [4], "dtype": "int32"}, {"name": "model_13/tf.strided_slice_7/ones_like", "shape": [4], "dtype": "int32"}, {"name": "model_13/tf.nn.convolution_22/convolution/filter", "shape": [3, 3, 128, 128], "dtype": "float32", "quantization": {"dtype": "uint8", "min": -0.1276838107436311, "scale": 0.000982183159566393, "original_dtype": "float32"}}, {"name": "model_13/tf.math.add_32/Add/y", "shape": [128], "dtype": "float32", "quantization": {"dtype": "uint8", "min": -0.92132989098044, "scale": 0.010968212987862382, "original_dtype": "float32"}}, {"name": "model_13/tf.nn.convolution_23/convolution/filter", "shape": [3, 3, 128, 128], "dtype": "float32", "quantization": {"dtype": "uint8", "min": -0.09814490322388855, "scale": 0.0009528631380960053, "original_dtype": "float32"}}, {"name": "model_13/tf.math.add_33/Add/y", "shape": [128], "dtype": "float32", "quantization": {"dtype": "uint8", "min": -0.7749552941789813, "scale": 0.007907707083458993, "original_dtype": "float32"}}, {"name": "model_13/tf.concat_3/concat/axis", "shape": [], "dtype": "int32"}, {"name": "model_13/tf.nn.convolution_24/convolution/filter", "shape": [1, 1, 384, 256], "dtype": "float32", "quantization": {"dtype": "uint8", "min": -0.23158893982569376, "scale": 0.0016542067130406698, "original_dtype": "float32"}}, {"name": "model_13/tf.math.add_36/Add/y", "shape": [256], "dtype": "float32", "quantization": {"dtype": "uint8", "min": -0.9650624604786144, "scale": 0.00919107105217728, "original_dtype": "float32"}}, {"name": "model_13/tf.nn.convolution_25/convolution/filter", "shape": [1, 1, 256, 128], "dtype": "float32", "quantization": {"dtype": "uint8", "min": -0.263690919268365, "scale": 0.00210952735414692, "original_dtype": "float32"}}, {"name": "model_13/tf.math.add_37/Add/y", "shape": [128], "dtype": "float32", "quantization": {"dtype": "uint8", "min": -0.5142317449345308, "scale": 0.006949077634250417, "original_dtype": "float32"}}, {"name": "model_13/tf.concat_4/concat/axis", "shape": [], "dtype": "int32"}, {"name": "model_13/tf.nn.convolution_26/convolution/filter", "shape": [1, 1, 512, 256], "dtype": "float32", "quantization": {"dtype": "uint8", "min": -0.1421374446036769, "scale": 0.0011746896248237759, "original_dtype": "float32"}}, {"name": "model_13/tf.math.add_38/Add/y", "shape": [256], "dtype": "float32", "quantization": {"dtype": "uint8", "min": -2.9321933185353, "scale": 0.023271375543930953, "original_dtype": "float32"}}, {"name": "model_13/tf.concat_12/concat/axis", "shape": [], "dtype": "int32"}, {"name": "model_13/tf.nn.convolution_51/convolution/filter", "shape": [1, 1, 384, 256], "dtype": "float32", "quantization": {"dtype": "uint8", "min": -0.290437941457711, "scale": 0.0020745567246979357, "original_dtype": "float32"}}, {"name": "model_13/tf.math.add_63/Add/y", "shape": [256], "dtype": "float32", "quantization": {"dtype": "uint8", "min": -1.319850484530131, "scale": 0.010558803876241049, "original_dtype": "float32"}}, {"name": "model_13/tf.strided_slice_15/ones_like/tensor", "shape": [4], "dtype": "int32"}, {"name": "model_13/tf.strided_slice_15/StridedSlice/end", "shape": [4], "dtype": "int32"}, {"name": "model_13/tf.strided_slice_15/ones_like", "shape": [4], "dtype": "int32"}, {"name": "model_13/tf.nn.convolution_54/convolution/filter", "shape": [3, 3, 128, 128], "dtype": "float32", "quantization": {"dtype": "uint8", "min": -0.06470721854883082, "scale": 0.0005135493535621494, "original_dtype": "float32"}}, {"name": "model_13/tf.math.add_66/Add/y", "shape": [128], "dtype": "float32", "quantization": {"dtype": "uint8", "min": -0.6328732932315153, "scale": 0.006144400905160343, "original_dtype": "float32"}}, {"name": "model_13/tf.nn.convolution_55/convolution/filter", "shape": [3, 3, 128, 128], "dtype": "float32", "quantization": {"dtype": "uint8", "min": -0.09647500094245462, "scale": 0.0007308712192610198, "original_dtype": "float32"}}, {"name": "model_13/tf.math.add_67/Add/y", "shape": [128], "dtype": "float32", "quantization": {"dtype": "uint8", "min": -0.6948750769390779, "scale": 0.007987069849874458, "original_dtype": "float32"}}, {"name": "model_13/tf.concat_14/concat/axis", "shape": [], "dtype": "int32"}, {"name": "model_13/tf.nn.convolution_56/convolution/filter", "shape": [1, 1, 384, 256], "dtype": "float32", "quantization": {"dtype": "uint8", "min": -0.22927733291597927, "scale": 0.001698350614192439, "original_dtype": "float32"}}, {"name": "model_13/tf.math.add_68/Add/y", "shape": [256], "dtype": "float32", "quantization": {"dtype": "uint8", "min": -0.7292973251903758, "scale": 0.006570246172886269, "original_dtype": "float32"}}, {"name": "model_13/tf.nn.convolution_58/convolution/filter", "shape": [3, 3, 256, 64], "dtype": "float32", "quantization": {"dtype": "uint8", "min": -0.06102205545586698, "scale": 0.00040954399634810055, "original_dtype": "float32"}}, {"name": "model_13/tf.math.add_70/Add/y", "shape": [64], "dtype": "float32", "quantization": {"dtype": "uint8", "min": -0.7883569792205213, "scale": 0.008663263507917816, "original_dtype": "float32"}}, {"name": "model_13/tf.nn.convolution_60/convolution/filter", "shape": [3, 3, 64, 64], "dtype": "float32", "quantization": {"dtype": "uint8", "min": -0.12062563712106032, "scale": 0.0009498081663075616, "original_dtype": "float32"}}, {"name": "model_13/tf.math.add_72/Add/y", "shape": [64], "dtype": "float32", "quantization": {"dtype": "uint8", "min": -0.5751013124690336, "scale": 0.00787810017080868, "original_dtype": "float32"}}, {"name": "model_13/tf.nn.convolution_62/convolution/filter", "shape": [1, 1, 64, 2], "dtype": "float32", "quantization": {"dtype": "uint8", "min": -0.2765060125612745, "scale": 0.0015534045649509803, "original_dtype": "float32"}}, {"name": "model_13/tf.math.add_74/Add/y", "shape": [2], "dtype": "float32", "quantization": {"dtype": "uint8", "min": -5.203125, "scale": 1.5318627450980392e-05, "original_dtype": "float32"}}, {"name": "model_13/tf.concat_15/concat/axis", "shape": [], "dtype": "int32"}, {"name": "model_13/tf.compat.v1.transpose_12/transpose/perm", "shape": [4], "dtype": "int32"}, {"name": "model_13/tf.reshape_8/Reshape/shape", "shape": [3], "dtype": "int32"}, {"name": "model_13/tf.concat_16/concat/axis", "shape": [], "dtype": "int32"}, {"name": "model_13/tf.strided_slice_17/StridedSlice/begin", "shape": [3], "dtype": "int32"}, {"name": "model_13/tf.strided_slice_17/StridedSlice/end", "shape": [3], "dtype": "int32"}, {"name": "model_13/tf.strided_slice_17/StridedSlice/strides", "shape": [3], "dtype": "int32"}, {"name": "model_13/output0/concat/axis", "shape": [], "dtype": "int32"}]}]}